lab2/problem2/neural-network-2-actor.pth (torch, 339743 bytes, 6 tensors)

weight f4 [400, 8]
00000000: 3aa1 c13e cde1 773e bf00 03bf cf6d 83bd
00000010: 4f97 18bf 8008 fc3c d751 a3be 4f93 1e3e
00000020: 5810 a9be 6223 843e 0dca 9fbe e8b5 b2be
00000030: 5e2e ab3c c9cb a6bd ce85 833e e782 a2be
00000040: d394 24be 53ec 9dbe 2393 2ebd 7eff fcbe
00000050: a380 ce3e 2175 403c 77cf 3dbe 80c4 5cbd
00000060: d0a2 adbe 42b7 213e c358 02bd f196 aabe
00000070: 232a e7bd 5cf7 b5bd db16 943d 6b09 e03a
00000080: e238 2e3e 081a 12be d5db dabe e92c d93c
00000090: 069a 0c3e afcc 143e f4ff 933e cb06 8e3e
000000a0: 24f0 003d 2812 503e 90de bdbe 653c 043e
000000b0: dd0c cb3e 4f37 4abf 85a1 8f3e f695 83be
000000c0: a335 76bb c2fe 813d 8388 fbbe 0c79 c2be
000000d0: 2274 793d e4c3 e23c 6eb2 463e d866 ae3e
000000e0: 6e64 3a3d 09ac 743e e54f a2bd 1a10 663e
000000f0: aba1 943d b7da 153f 6bbc cb3e 2198 e4bd
00000100: c601 64be cbe2 a13e c26b 8a3e e7d1 20be
00000110: 0f46 1c3f 4691 7cbd b34c 44be 80a8 523e
00000120: 43b1 7dbe 6cb4 27bd 9f57 b1be 4a60 a9be
00000130: 3463 d7be d2f0 4dbe 7b22 43be db3b 80bd
00000140: e5ef c0bd 2135 f23c 4f62 2abf 8c9a 39be
00000150: 3d28 7ebe 509e fbbe 6f37 eabd 3e63 a13e
00000160: 3925 95bb c9ba d2bd f195 643e 860d 533e
00000170: 5946 96be 6365 b4be 0919 a93e 7833 b4be
00000180: 0bd6 213e 0a96 6dbe e8dc 883e 9217 ed3c
00000190: b0c0 393e 9128 58be f836 a1be 7ee0 db3e
000001a0: 2f1d 9a3d 32b2 803e def3 70be dcbd d8be
000001b0: 3cb4 083f 4f3e b93d 713c 37be 077e b1be
000001c0: 920c 853e 2d79 683e 5dd6 dfbe 4603 8c3e
000001d0: 0fb2 b03e 1c2a 56bd 6b20 97be 3ff4 acbe
000001e0: 2346 9bbe 3ad1 273e ea9d ddbe cdc2 343e
000001f0: 7bc1 cf3e 93e1 d1be e00a b9be bfd7 493e
00000200: ca95 acbd 0d3b 83be 5ed3 0f3f 0fac a53e
00000210: 0421 12bf 6cb5 8abb 5cf2 c9bd d7b4 703e
00000220: b8b0 b9bc 9a76 ce3e d70c 68be 1934 a3be
00000230: f521 383d ddb3 34be ea9e 7dbc 5807 45be
00000240: 6e39 293e 7f70 c4bd da4d 9dbe 2f19 543e
00000250: a3c9 9c3e fcfc 523e f09f a3be 8b35 183e
00000260: 492c a4bb ce30 17bc be85 b3be c618 35be
00000270: c3fa a13e 8664 a9bc 58d4 a7be 6793 bdbe
00000280: ae01 65bd 1e92 ab3e b409 17be 09a4 823e
00000290: ed27 833e 907d 803d 9c79 b1be 076d da3d
000002a0: 4452 c33d 237a 53be d59e 853e dc69 c6be
000002b0: 628b 283f 42c9 e43e 4a5f 6a3e 7794 b0be
000002c0: fcfd 97be a75f 93be 4f89 bcbd 248b 963e
000002d0: 6bbb d4be 253f 19be a754 18bd a015 8ebd
000002e0: a135 0b3e 4fe4 97be 7b03 afbe 6fdd 343e
000002f0: f3b4 91be eaf3 ed3d b7ae 6a3e 3b79 573e
00000300: c32f ee3d 2fec e53d 59d8 e13d 3286 503e
00000310: 2b09 84be 7e87 0a3e 5ff8 c03e 5bad 893e
00000320: bc86 d8bc 93ec 7d3e 28f7 3d3e 5197 6b3e
00000330: fec5 0abf f085 c7bd aed4 3b3e c069 9fbe
00000340: 8211 153c 3d14 27be 5f2e 143f b201 a93e
00000350: 4cae f93e 8e71 f43e 8966 c7be db85 01be
00000360: 72a1 5b3d 122a 643e 6f02 22be 762f 913e
00000370: 416f 353e 82c0 aebd 00cc 993e 3c24 bc3e
00000380: 0540 3eb9 d9b2 adbe b84c f3be a093 943e
00000390: 98da 823e 5606 d03d 2b3d d93e 016a c63c
000003a0: 103a 29be cdf8 a43e ff6d 79be 3e13 503d
000003b0: 2300 8f3e c918 1dbe 73bc 3ebe 5645 4fbe
000003c0: 6d98 0b3e b260 bc3e 6b5c 9fbe 1223 f3bc
000003d0: 3d65 9a3c d904 b23e 2d8d 5fbd 536e edbd
000003e0: df29 12bd 7527 873c 05d5 0a3f 7d5e 293f
000003f0: ec17 463f 9684 a13d 0931 423b ad43 a73e
0.3781832 0.2420723 -0.51173013 -0.06417429 -0.5960588 0.030765772 -0.31898376 0.15485881
-0.33020282 0.25808245 -0.3120884 -0.34904408 0.020896133 -0.08144338 0.25688022 -0.31740496
-0.16072397 -0.30844364 -0.04262079 -0.49413675 0.40332517 0.011746676 -0.18536173 -0.053898335
-0.3391328 0.15792564 -0.03182293 -0.33318284 -0.11287334 -0.08885071 0.07230922 0.001709265
0.17013887 -0.14267743 -0.42745844 0.026510673 0.1373063 0.14531206 0.28906214 0.27739558
0.031479016 0.20319426 -0.37083864 0.12913664 0.3965825 -0.78990644 0.28052917 -0.2570035
-0.003756859 0.06347419 -0.49127588 -0.37982976 0.06090177 0.027681299 0.19404003 0.3406284
0.045505933 0.23893751 -0.07925395 0.2246708 0.07257398 0.5853686 0.3979219 -0.11161829
-0.22266302 0.31618342 0.27035338 -0.15705071 0.610444 -0.06166198 -0.19169883 0.2057209
-0.24774651 -0.040943548 -0.34637162 -0.33081275 -0.42067873 -0.20111397 -0.19056122 -0.062614165
-0.09420756 0.02956635 -0.66556257 -0.18125361 -0.24820037 -0.4914422 -0.11436354 0.31521028
-0.0045515564 -0.10289533 0.22322823 0.20610628 -0.29350546 -0.35233602 0.33026913 -0.35195518
0.15804307 -0.23201767 0.26731038 0.028941903 0.1813991 -0.21109225 -0.3148725 0.4294471
0.075250976 0.25135952 -0.23530528 -0.4233235 0.53400016 0.090450875 -0.1789415 -0.34666464
0.25986153 0.22702475 -0.43718234 0.27346247 0.34510848 -0.052286252 -0.2951692 -0.33780095
-0.30326948 0.16388407 -0.4328454 0.17652436 0.405773 -0.40992412 -0.3614111 0.19711207
-0.084270075 -0.2563099 0.56181896 0.32357833 -0.5708163 -0.004233053 -0.098606795 0.23506485
-0.022667274 0.4032486 -0.22661148 -0.31875685 0.04495426 -0.17646737 -0.015479783 -0.19241083
0.16525814 -0.095917694 -0.3072346 0.20712732 0.30622587 0.20604318 -0.3195796 0.14864175
-0.005010162 -0.009227945 -0.35062975 -0.17685232 0.31636629 -0.020677816 -0.32779193 -0.37026522
-0.055909805 0.33509916 -0.14749795 0.25515774 0.25616398 0.06273949 -0.34663093 0.106653266
0.09537175 -0.2065206 0.26097742 -0.3875264 0.6583768 0.44684798 0.22887912 -0.3448827
-0.29685962 -0.28783914 -0.09205877 0.2940303 -0.4154924 -0.14965494 -0.037190106 -0.069377184
0.13594677 -0.29666373 -0.34182343 0.17662595 -0.28458366 0.116187885 0.22918211 0.2104234
0.116302036 0.11226689 0.11027593 0.20363691 -0.25788245 0.13528249 0.37689492 0.26890072
-0.026431434 0.24797277 0.18551314 0.23006941 -0.5420836 -0.097423434 0.1834285 -0.31135368
0.0090984125 -0.16316314 0.57883257 0.33009106 0.4876579 0.47742885 -0.38945416 -0.12648718
0.053620763 0.22281674 -0.15821241 0.28356522 0.17718221 -0.08532812 0.30038452 0.36746395
-0.00018143661 -0.33925512 -0.4751947 0.2901888 0.255574 0.101574585 0.4242948 0.024220468
-0.16526055 0.3222107 -0.24358366 0.0507996 0.27929792 -0.15341486 -0.18626575 -0.20241293
0.13632365 0.36792523 -0.31125197 -0.029679809 0.018847102 0.34769323 -0.054577995 -0.11593308
-0.035684463 0.016498307 0.5423129 0.661598 0.7738025 0.07886617 0.0029631278 0.3266882

bias f4 [400]
00000000: 9992 92bd 8314 8ebd 5873 e63c 1541 163e
00000010: ee28 613e fe7b 583e 3c49 2fbd f4c9 5cbe
00000020: 3be3 dc3d 0959 5d3e 7dbf a73c f775 753e
00000030: b24a 1abd 5218 babd ae9a 7a3d 3586 2abe
00000040: dfc7 623e 589a 16be 6274 8a3e 8b3a e0bd
00000050: b1bf 993d 578a 89bd 91fc 9f3e 46a5 7e3e
00000060: 6622 41be 5448 813d e958 623d 7db0 553d
00000070: ea9f 95bd e248 25be 0500 e7bd 5ec5 523e
00000080: 0653 633e ee07 fd3b 8613 383e 0c54 533d
00000090: bd07 bcbc e292 afbd 16b1 753e e6ca 77be
000000a0: 9659 c13d 7c18 aa3d ec4e d93e 755f ac3e
000000b0: 6ca5 c3bc 384e a93c bccd e23d 4502 613c
000000c0: 02e7 633e 2452 28bc 5814 683e 7545 503e
000000d0: 5f41 58bd bb0d db3d d677 2ebe 5ab8 0d3d
000000e0: 659a c3bc ac11 6a3e b76a de3d 5d7f 743e
000000f0: 609d 8cbc c40c fd3d d87c 6fbd 2f01 053e
00000100: ed8e 3c3e 7af9 123c ff23 f0bd 52e5 603e
00000110: 30ea c93c 7da0 763d 8613 783e caa5 1ebe
00000120: 88d0 1b3e f245 d6bd 6cad 10be fc62 cd3d
00000130: 72a1 ed3d 6db8 893e 8936 093e 492f 95bd
00000140: e23b 84bd 5291 6c3e 8af9 cabc 4a11 9d3e
00000150: 0f81 133e 21fa 4c3d b6ea 263e 5052 f1bc
00000160: 4edb 1f3e b5cf ffbd e7af 1d3e d044 cd3e
00000170: ba52 6e3d 82fc 50be 3b2e d8bd a25a 17be
00000180: 1236 0f3d 0025 903e 61db a8be 78ee 0abb
00000190: 05c5 a23c d466 36be 5143 a0bc 65c6 46be
000001a0: f52f 103e 7064 9bbe 6baf 593e 0330 edbd
000001b0: 8a32 ecbb 7325 d83d 0ab4 bfbd bd3f b23c
000001c0: 8392 14bc 0cf6 4fbe 56d4 373e fc9d 653e
000001d0: b004 89bd e547 983e 6154 663d 8000 02bd
000001e0: 6bb7 863d 6e5c cf3d a7d9 b83d 362d 923e
000001f0: 1436 263e e15a 8a3e bb65 6b3e 6e18 8b3e
00000200: 9ea2 8a3d 88dd 5dbe 4709 263b b1a6 a63e
00000210: 0a2c 0b3e 3214 233d f25e 9b3e 11d3 f53d
00000220: 007d 5dbe 1340 8e3e 7a98 4abd 486a 6f3e
00000230: 0273 583d 408e 6fbe f601 1b3e 1617 823e
00000240: 1878 3c3d cab2 1c3e 4044 a63e 871e 2abe
00000250: 471f 3e3e d11d 83bb 0536 80bc a7ec 713e
00000260: ad9b 21be 3f14 0e3e 20a7 15bd e52b 1aba
00000270: d3a3 13be d1c4 90be 374d 6c3d d217 3e3e
00000280: 4a2c a0bd ba7c 81be 1541 36be ae60 783d
00000290: 3218 b03d 802c 533e 0d85 49be 55ee 96bc
000002a0: 64cc 573e 7482 38be 1236 bdbc d16e 9f3e
000002b0: d765 983e 4dc1 37be d6e2 21be c172 ab3e
000002c0: a8e1 573e 5c8e b83e 01f0 4e3e 61b3 173d
000002d0: e2c8 a6bd 42f9 f239 57db fdbd 789b 8b3e
000002e0: e4a6 dabd f6fa 8f3e 119e 1d3d da6d 13bd
000002f0: 29a2 d4bd a90c 663e d5a4 933d 73e5 c33c
00000300: f5c9 6f3e c035 2abd 1e89 c1bd 2e3f 78be
00000310: 8512 b53e 27fa 543d 192a 8d3e 4e3b cebd
00000320: cb9c 513c 44d2 4cbe 45ce 103d 983a ccbc
00000330: 98ed 833e e2f1 84bd 1900 bc3d 3590 eb3d
00000340: 1f7f 213e 88a6 113d e717 983c 2f9c cf3c
00000350: 3325 41be 76b4 11be 264e 22be e7d6 973c
00000360: be92 55be 1a2f 183e 2f48 9dbd 37e6 e9bd
00000370: 2b2b 083c 99d1 68be f9ae 18bd 9782 2b3e
00000380: 16b8 633e 5abd 3a3e 3403 5bbd 92eb 2cbd
00000390: febf 2b3d 1a04 a23d 8c76 523e 2239 483e
000003a0: 2dc3 323e a116 a83e c192 883e efa3 0c3e
000003b0: 12d5 0c3d 5000 8bbe 3508 75bc 8c2d 3a3e
000003c0: 0139 65bd 45ec 8c3e ca5d 843e 3595 44be
000003d0: 1ea1 22be a8d0 913d bf40 f0bd 5248 19be
000003e0: 8546 39bb a793 0e3e a5b0 08be 1365 92bb
000003f0: 8ac2 9f3e c5b7 1cbe 67e9 9dbd f6a8 69bd
-0.071568675 -0.06937506 0.028131172 0.14673264 0.2198827 0.2114105 -0.04279445 -0.21561414
0.10785528 0.21615995 0.02047705 0.23970781 -0.03766889 -0.0908667 0.06118267 -0.16652758
0.22146557 -0.14707315 0.27041918 -0.10948666 0.07507265 -0.06715839 0.3124738 0.24867734
-0.18860778 0.063126236 0.055260573 0.052170265 -0.07305892 -0.16141084 -0.112793006 0.20583102
0.2219964 0.0077218926 0.17976198 0.051593825 -0.022952909 -0.085729375 0.23993334 -0.24198493
0.09440915 0.08305451 0.42443025 0.33666578 -0.02388259 0.02066718 0.11074397 0.013733451
0.22256091 -0.01027349 0.2266401 0.20338996 -0.052796718 0.10695978 -0.17037901 0.03459964
-0.023877332 0.22858304 0.10860198 0.2387671 -0.017164886 0.123559505 -0.05846867 0.12988733
0.18413897 0.008970613 -0.11725616 0.21962479 0.024647802 0.060211647 0.24226198 -0.15492931
0.15216267 -0.1046256 -0.14128655 0.100286454 0.11603059 0.26898518 0.1339971 -0.072844096
-0.06456734 0.2310231 -0.024777193 0.30677253 0.144047 0.05004323 0.16300473 -0.029458195
0.15611002 -0.12490789 0.15399133 0.40091562 0.058184363 -0.20408824 -0.10555693 -0.14780667
0.034963675 0.2815323 -0.32979873 -0.0021199267 0.019869337 -0.17812663 -0.019563349 -0.19411619
0.14080794 -0.30350065 0.21258323 -0.11581423 -0.007208173 0.10554018 -0.093605116 0.021758908
-0.009068134 -0.20308703 0.17952093 0.22423548 -0.06690347 0.2974235 0.056232814 -0.031738758
0.06577953 0.101250514 0.09025889 0.28550118 0.16231567 0.2702246 0.22988026 0.27167076
0.06769298 -0.21666539 0.002533512 0.3254905 0.13591018 0.03981418 0.30345875 0.12003148
-0.21629715 0.2778326 -0.04946182 0.23380387 0.052844055 -0.23394108 0.15137467 0.25408238
0.046012968 0.15302578 0.32473946 -0.16613208 0.18566619 -0.004001357 -0.015650759 0.23625432
-0.15782042 0.13874911 -0.036536336 -0.00058811746 -0.14417963 -0.2827516 0.057690825 0.18563774
-0.078209475 -0.2529047 -0.17798264 0.060639076 0.08598365 0.20622444 -0.19679661 -0.018424192
0.21074063 -0.18018514 -0.023097072 0.31139234 0.29765198 -0.17944832 -0.15809187 0.33485988
0.21082175 0.36046112 0.20208742 0.037036303 -0.08143784 0.00046343548 -0.123953514 0.2726705
-0.10676363 0.28121156 0.038480822 -0.035993434 -0.10382492 0.22465767 0.072091736 0.02391312
0.23416884 -0.041555166 -0.09449981 -0.24242851 0.35365692 0.051996376 0.2757118 -0.10069905
0.01279373 -0.20002085 0.035352964 -0.024930283 0.25767207 -0.06491448 0.09179706 0.11502115
0.15771149 0.035559207 0.018566085 0.025343029 -0.18861847 -0.14228997 -0.15850124 0.01853509
-0.20856759 0.14861718 -0.076797836 -0.11420863 0.008311073 -0.22736205 -0.037276242 0.16749035
0.22238192 0.18236294 -0.05346985 -0.042216845 0.041931145 0.079109386 0.20553035 0.19553044
0.17457266 0.32829764 0.26674464 0.1373441 0.034382887 -0.27148676 -0.01495557 0.18181437
-0.055962566 0.2752401 0.25852805 -0.19197543 -0.15881774 0.07119876 -0.11731099 -0.14968994
-0.0028270793 0.13923512 -0.13348635 -0.0044676154 0.3120311 -0.15304478 -0.077105336 -0.0570459

weight f4 [200, 400]
00000000: 2360 26bd de74 babc e0d3 65be 309c b3bb
00000010: 4746 a93d 78e1 3e3c 018e 083e 32a7 32bd
00000020: db91 8bbd 751b d7bc dddc 693e 735c 643d
00000030: 5502 0dbe e85a 583e 609f 3ebb cdd5 1e3e
00000040: 153c 923d b2af c8bc 0775 723d bbdc 2c3e
00000050: fdd1 063d 959e fcbd 2725 e03c 0894 5ebc
00000060: fd7c 2cbe 8be4 44bd 37ab 62bc ea77 d1bc
00000070: 29c9 04be f308 823d 102a 84bd f248 b0bd
00000080: 666b 90bc dcc7 033e c26f 963d c9f3 cf3e
00000090: e22f f9bc 7880 5b3c 7ba6 42bd 3b07 36bc
000000a0: 402e 40bc 8b80 de3b dde6 38bd 1906 9fbb
000000b0: 7f74 07be 4d18 a23c 8afb 333d 3dd9 84bc
000000c0: 4f7a c2bc 70b2 47bc fa90 913d da54 453d
000000d0: d1a5 873b 084e 913b 8fc8 bd3d f45d f5bd
000000e0: 5531 3bbd e948 18bc 521c 4d3d 4194 ccbc
000000f0: 2719 07be 55c4 563c 84ee 00be 82a0 29be
00000100: def8 823b d213 c03b 5f62 b23d 4aca 20ba
00000110: facc febc 57f0 fb3d bcf3 ad3d 115b 0a3e
00000120: 595f 1c3c 25ef 193e 579d 82bc 8a3b 8b3d
00000130: b6fe 413d ad76 b83c fca0 81bd f7f9 11be
00000140: 28e1 9a3d 967a 6bbd 49c3 e83c 353a f33c
00000150: 6093 8339 9f4f a83c 8f42 243d b527 81be
00000160: 451a 8e3d 7eb5 263d 47a3 903d e317 bf3d
00000170: aafc d9bc 2c56 37bd c363 a6bd 697b a4bd
00000180: 397c 883b ad64 a0bd 8d84 e5bd 1d03 8abd
00000190: 6aad a13d d4ea 743d c25c 0cbb 9bb0 82be
000001a0: 266a bc3c e677 d7bd fe16 8bbd 9b22 0d3d
000001b0: f75d a2be 3966 8e3d 4ab0 cebd eb05 fd3b
000001c0: 3a54 113d e81e 053c 4017 62bd acec 88bd
000001d0: a6ef 93bd 66bb 50bc 2087 613d 4989 a7be
000001e0: a838 a5bd 9172 a13d dfb1 0bbd f75a 59bd
000001f0: 09af 2bbe 5324 63bd b90a d33c 25b6 d2bd
00000200: cf10 94bd 5f77 2cbe 4e98 063e 55af 9bbd
00000210: 59b4 a73c 224d 4c3d dbdd f9bb 2822 7cbb
00000220: 1ccc d0bd 7ca2 42bd a68f d23d 487d f8bc
00000230: ea8f d63d 97d5 a03d 2b34 06be 0d55 663d
00000240: 9e80 183e 7975 7dbd 1b2d 843d fbc4 563d
00000250: b09f 413d 9875 7b3e c2e3 ffbc 165a eabc
00000260: 160d 24be 61e3 83bc 2299 34be fc69 02bc
00000270: d0ca babd 523f 9b3c fc14 a7bd 825b 0d3d
00000280: 0dea b43d 8361 603e 08d4 96bc 3c36 8f3d
00000290: c771 b0bc ff14 3d3d f6af 933c 6430 873c
000002a0: 741b 8abd b701 5f3e 3934 a13d 08f8 1b3c
000002b0: 93ab 583d 80fc ebbd 5249 9fbc 3cae 2fbd
000002c0: 2ae9 0fbd 91f3 483d 7991 2ebd 7fe2 96bd
000002d0: c41e b93d 1d86 7fbe cb60 533e d435 e93c
000002e0: c4bf f93d b010 e13c c0ec 923c 3c3f 5e3e
000002f0: bdf4 83bd 8cbd 303d a232 6dbd a054 53bd
00000300: a4ae eabd 09f7 23be 0397 053c 46ae bebd
00000310: 740b 183c 5194 74bd e4ff 433d ca69 d5bd
00000320: 3d3b 23be b921 013d cb20 52bd 76e9 41be
00000330: f2b6 c0bc 5ffc c13d e65b 55bb ca8c f2bc
00000340: 94e4 61bc 6fa7 a4bc 9275 45bd e1ec dbbe
00000350: d389 a73d 0836 c1bd b4d4 dd3c b20f a1bc
00000360: 63a3 0bbe 5e2e 063d 3d38 673b 6d9e 273e
00000370: bb02 85bc 8032 fdbc 6c5d 02be 7417 203a
00000380: 67c6 80bd b7e5 533c f027 58be f649 9c3d
00000390: 2166 7dbe 91bf bbba be90 22bc 641b 02bd
000003a0: 6aa3 52bd 9e2b 98bc f2de 373c 7448 333e
000003b0: 72a4 10be 34d0 863c 3880 43be 71c1 b43c
000003c0: 2bb1 c93d 4587 bf3d 3892 7e3c c48e 7b3e
000003d0: d467 283b 18c1 1d3e 3c6d d3bd 844c 25be
000003e0: 8237 e1bd bda2 c33d 7c77 2cbe 7de0 2a3d
000003f0: 5b1f 84bc 1681 25be f93e 273e a6dd 143e
-0.040619027 -0.022760805 -0.22444105 -0.0054812655 0.082653575 0.011650436 0.1333542 -0.04361648
-0.06814929 -0.02625821 0.22838159 0.05575223 -0.13770421 0.21128428 -0.0029086694 0.15511246
0.07140366 -0.02449784 0.059193637 0.16881077 0.032915104 -0.123349346 0.027361466 -0.013585098
-0.16844554 -0.048069518 -0.013834766 -0.025569875 -0.12967362 0.06349363 -0.06453335 -0.08607663
-0.017629337 0.12869209 0.07345535 0.4061568 -0.03041834 0.013397329 -0.04752205 -0.011110122
-0.011729777 0.006790226 -0.045142043 -0.004853022 -0.13228033 0.019786978 0.04394106 -0.016216869
-0.023739962 -0.012188539 0.0710773 0.048176624 0.00413964 0.004434351 0.09266769 -0.11980811
-0.045701344 -0.009294727 0.050075836 -0.024973037 -0.13193189 0.013108333 -0.12590986 -0.16565135
0.0039969524 0.0058617378 0.08710169 -0.0006133659 -0.0311036 0.123017006 0.08493754 0.13511302
0.009544217 0.15032633 -0.015944166 0.067984655 0.047362052 0.022517527 -0.063295335 -0.1425551
0.075624764 -0.057489954 0.028413432 0.029690841 0.0002509607 0.020545779 0.040102538 -0.25225607
0.06938604 0.04070043 0.07062393 0.09330728 -0.026609737 -0.044759914 -0.08124497 -0.08031351
0.004165199 -0.078317024 -0.11206923 -0.06738875 0.07894404 0.059794262 -0.0021417593 -0.25525364
0.022999834 -0.10520916 -0.06791495 0.03445683 -0.31712314 0.06953091 -0.10092218 0.0077216527
0.035480715 0.008125044 -0.055197954 -0.066857666 -0.07223444 -0.012739992 0.055060506 -0.32721928
-0.08067447 0.0788318 -0.034105178 -0.053065266 -0.1676599 -0.055454563 0.025761949 -0.102886476
-0.072297685 -0.16842411 0.13144037 -0.07601801 0.020471739 0.049878247 -0.007625324 -0.0038472507
-0.10195181 -0.04751824 0.10281305 -0.030333176 0.10476668 0.07853239 -0.13105838 0.056233454
0.14892814 -0.06187961 0.06453916 0.05243395 0.04727143 0.24556577 -0.031236533 -0.02860741
-0.16020617 -0.016099634 -0.1763654 -0.007959839 -0.09120715 0.018951092 -0.08158299 0.034511097
0.08833704 0.21912198 -0.018411651 0.06992766 -0.021538628 0.0461626 0.01802824 0.016502567
-0.067435175 0.21777998 0.07871289 0.0095195845 0.052898 -0.1152277 -0.019444142 -0.042890772
-0.035134472 0.049060408 -0.042619202 -0.073674195 0.09039071 -0.24953504 0.20642392 0.02846805
0.121947795 0.027473778 0.017935157 0.2170381 -0.064431645 0.043149516 -0.057909615 -0.051594377
-0.11459091 -0.16012205 0.00815368 -0.09310584 0.009280074 -0.059711758 0.04785146 -0.10420568
-0.15940566 0.0315263 -0.051300805 -0.18936715 -0.023524735 0.09471964 -0.0032555996 -0.02960815
-0.013787407 -0.02009937 -0.048207827 -0.42954162 0.08180585 -0.09434134 0.027078964 -0.019660804
-0.13636546 0.032759063 0.0035281323 0.16369028 -0.016236654 -0.03090787 -0.1273095 0.00061070104
-0.06287842 0.012933186 -0.21108985 0.076312944 -0.2474599 -0.0014324059 -0.009922205 -0.031764403
-0.051425375 -0.018575486 0.011222588 0.17508107 -0.14125231 0.0164567 -0.1909188 0.022064896
0.09848245 0.093519725 0.015537791 0.2456618 0.0025696652 0.1540569 -0.10323569 -0.1614247
-0.109969154 0.09552524 -0.16842455 0.041717995 -0.016128233 -0.16162524 0.16332616 0.14537677

bias f4 [200]
00000000: 984e 163d 8311 eebc 8757 eabc 6ee1 e53c
00000010: dedd 373d feef 633d 873b f83c 2fb2 edbc
00000020: 4942 273d 7f90 3a39 5c9f 6b3c 4f1e 7b3d
00000030: ade1 03bd 346a bcbc 84c7 8a3c de4a 66bb
00000040: e95d b53c 725d f43c 0a80 9c3c 1a17 233d
00000050: 326f 6abc 1c40 a1bb 12db 323c 2e1f c23c
00000060: d20a 3f3d f7e6 4f3d 1c70 fe3b 303d 323c
00000070: c394 ef3c b920 36bd e381 163b f3b3 3a3d
00000080: 5c2d 40bd f64d 1d3d 9b97 273d ff42 b73b
00000090: 4358 123d dcda ce3c cbde f53c c2a6 05bd
000000a0: b2ee 593c 398a ca3c 242e 173d a2bf 233d
000000b0: 7118 473d 8e08 f73b b0e1 10bd 0e5e fb3b
000000c0: 7a6f e73c 9340 413b b7e7 233d d1e5 913c
000000d0: 460a 203d 0120 1dbc c7fb 0cbd 26b1 1bbb
000000e0: 6384 333d 0d71 443d 4dca 3bbc 5e3a 843c
000000f0: a761 adbb 2bb4 dfbc 4748 2dbc 8636 39bc
00000100: ff90 8bbd 41d8 853c bb44 753d 658b d43c
00000110: 2e58 633d 5964 94bc 5eea 163d 4432 74bc
00000120: 399f 833c dc46 4cbc 2867 bf3c 621e 103d
00000130: f96a 483c 8054 a33c fe3d 3abd f36f 7a3d
00000140: a0b2 c0bb 6441 2dbc 620c 07bd 03c2 373d
00000150: 07bb b13c 9d26 7b3c 386f 0cbc 7c8e 5fbc
00000160: f8db b03c f055 313c 39ed 313d d9f3 2bbc
00000170: a161 c53c 3f22 75bb 5fb1 673d ef10 b83c
00000180: b046 08bc a43d 0d3c 93f2 093d 2869 d3bc
00000190: d233 03bd c446 72bd 794f 39bd cdd2 1d3d
000001a0: ca02 d6bc d575 513d ed02 8fbc ec71 153d
000001b0: 3f15 15bd 4f30 c9bc 6a9c 8f3d 9515 d13a
000001c0: 321e da3c 59b8 1e3d da29 29bd 82e9 303d
000001d0: 53cb 173d 2f64 fdba debe 49bc 239f 893c
000001e0: a86c a1bd 5f28 abbd e9e1 dd3c ef65 083d
000001f0: 567d c53c 080a 1dba 99aa 41bd 150f 403d
00000200: 362b 833c 818f 803d 20e8 1abc 9544 97bc
00000210: 86d2 fbbb 1871 813d deef 393d 53db 08bd
00000220: af1c 993c 0cd5 313d 56a5 afbc 5485 6fbc
00000230: 4d09 e9bc 0f0d 083d a48f 3c3d c982 9abd
00000240: c7bb febb 6adc 3a3d df52 a6bc 917b b13b
00000250: 24ba f1bb 1ba0 bebc ff3d 343d 7850 373c
00000260: d8d9 e83b 95d9 05bc a162 863c f27c b0bb
00000270: 7a72 1cbc f7b3 cbbc 08fa 13bd 67ab 8ebc
00000280: 009e 9ebc aa32 cd3c 8432 94bc bd12 7a3c
00000290: d8a2 9a3c 83f9 acbc 3b88 003d af03 d9b8
000002a0: 3c0d 313d 4709 813c d090 48bc 6b4d 2abc
000002b0: 17bf d5bc 32ed 0abd 4834 81bc 4b4f b93c
000002c0: 6d24 16bc 0469 133d 4eeb 3d3d 2268 ae3c
000002d0: 3052 393d 6112 a63c 061d 93bc e9ba 053d
000002e0: 4eb1 a0bb 406c 493d ccfb abbc 1657 fa3c
000002f0: 3f4b 73bd 0e21 b4bc d88b d8bc 5ef5 52bb
00000300: 1c13 003d e92a 813c 453b d93c 97c3 94bb
00000310: ae9c 76bc 9c17 ca3b 1ddd e1bc e80c 873d
0.036696047 -0.029061085 -0.02860619 0.028061595 0.044889323 0.055648796 0.030301822 -0.029015629
0.0408347 0.00017792171 0.014381256 0.0613082 -0.032197643 -0.02299986 0.01694084 -0.003513984
0.022139506 0.029829714 0.019104023 0.039816953 -0.014308738 -0.0049209725 0.010916488 0.023696508
0.04664118 0.050757375 0.0077648293 0.010878846 0.02924574 -0.0444648 0.0022965602 0.04558177
-0.046918258 0.038404427 0.040916067 0.0055927034 0.035728704 0.025250845 0.030013463 -0.032629736
0.013301538 0.024724113 0.036909238 0.039977677 0.048607294 0.0075388616 -0.035371482 0.0076711243
0.028251398 0.0029487952 0.040015902 0.01780978 0.039072298 -0.00959015 -0.0344198 -0.0023756712
0.043827426 0.047959376 -0.0114618065 0.016141113 -0.005291182 -0.02730759 -0.010576314 -0.011304503
-0.06814765 0.01633847 0.05988 0.025945375 0.055504017 -0.018114256 0.036844604 -0.014904562
0.016067134 -0.012468066 0.023364618 0.035185225 0.0122325355 0.019937754 -0.045469277 0.06114192
-0.0058806688 -0.010574672 -0.032970794 0.04486276 0.021695627 0.01532903 -0.0085714385 -0.013644811
0.021589264 0.010823712 0.043439124 -0.0104951495 0.024094405 -0.0037404445 0.05656564 0.022469012
-0.008317634 0.008620653 0.033678602 -0.025806978 -0.03203184 -0.05914952 -0.045241807 0.038531113
-0.026124377 0.051137764 -0.01745745 0.036485597 -0.036397215 -0.024559168 0.070122555 0.0015951867
0.026625726 0.038750026 -0.04129968 0.04319144 0.03705914 -0.0019332225 -0.012313573 0.016799515
-0.07882053 -0.083573096 0.027085261 0.033300336 0.024107616 -0.00059905695 -0.047281835 0.046889383
0.016011816 0.06277371 -0.009454757 -0.01846532 -0.0076850085 0.06320399 0.04539477 -0.03341229
0.018690435 0.043416068 -0.021441143 -0.01461919 -0.028446818 0.03321558 0.046035424 -0.075444765
-0.0077738496 0.04562036 -0.020303188 0.0054163416 -0.007376926 -0.023269704 0.044004437 0.011188619
0.007106047 -0.008169551 0.016404452 -0.0053859884 -0.009548778 -0.024866087 -0.03612712 -0.017415715
-0.01936245 0.025048573 -0.018090494 0.015263257 0.018876478 -0.02111507 0.03137992 -0.000103480525
0.043225512 0.015751494 -0.012241557 -0.010394434 -0.026092095 -0.033917613 -0.015772 0.022620818
-0.009163958 0.035988823 0.046366982 0.021289889 0.045244396 0.020272436 -0.017958175 0.032648955
-0.004903949 0.0491755 -0.02099409 0.030559104 -0.059397932 -0.021988418 -0.02643387 -0.0032189707
0.031268224 0.015767531 0.02651752 -0.0045399177 -0.015052004 0.0061673652 -0.027571255 0.065942585

weight f4 [2, 200]
00000000: c3b4 59be ed04 a4be 87cd 0fbe aac1 703e
00000010: 2f58 b9bd 849f 1fbf 14fd 98be bd68 a9be
00000020: 3a43 313e 53f0 edbd 7f5f 86be 27d9 563e
00000030: b736 ffbc e689 743e 9337 07bf 55f0 2c3e
00000040: 48ca 0f3d 2dbd 30be c387 4b3e 314f 4b3e
00000050: 7d4b febd 5d35 9cbb 42d5 9f3d f1f3 8d3c
00000060: 2115 453e e787 033d 3966 313e 8138 313e
00000070: 93eb 20bf dd3f 05be ce82 2dbe 681e 0c3e
00000080: d58a 82bd 66ce c53e 7122 363e 7166 3e3e
00000090: 3a3e 3e3e 7d89 de3e 219d adbd 156a 6f3d
000000a0: 7884 c5bd 5099 19bf 834e e03e f842 d7bd
000000b0: f9df 11bc 7f73 883e 15a3 ccbe 37b0 503e
000000c0: ee99 453e d391 b4be b487 6bbe 2273 993c
000000d0: 67b7 7dbc 1495 3f3e 3b73 f6be d4e7 65bd
000000e0: 0e0e 0c3e 25ec 233e af3b cc3e 72cf 31bf
000000f0: 6408 413e 2219 7b3e 98fd 2d3e d03e 7bbe
00000100: 4131 27be 6733 94bc fde3 fdbe d998 07be
00000110: bdb5 b5bd e2f4 04bd 845d f0be a163 16bf
00000120: 33d7 2abf 7d62 5ebd 86c5 1ebe f336 4a3e
00000130: 88d6 bd3e 2e64 d53d 7108 46bd 99ff e63d
00000140: 4fa2 36bd da56 13be 2be1 f43d 628c 643e
00000150: b7cf 3e3e ebe8 22bf 0e58 55bd d4e6 fd3e
00000160: 0eb2 9fbe d69f 2ebe c543 1bbe 684b f53d
00000170: bbb9 493b 53ab aabc df09 423e 75c5 a4be
00000180: 3835 edbe caaa 103f 6f4a d4bd 9c11 89bd
00000190: 4b0f 59be 9148 66be f3b9 083e 2a6b 4d3e
000001a0: 5861 f5bb ab94 9d3e f5d7 4e3d c087 e8be
000001b0: 3a13 233e c64c 243e a820 9abc 03d8 993e
000001c0: 2b59 8bbe 5134 eb3e 49a1 673e 5303 a53d
000001d0: 4dc2 80be 8140 213e 36d1 3f3e 54ee 793e
000001e0: 3089 aabd b621 20be de81 45be c2a8 8ebe
000001f0: aede 283e 08b9 6bbe 9b96 4bbe 39f5 10be
00000200: 0bb7 4ebe 52e7 88bd 218a d03e 4b0d 71be
00000210: b5c7 683e 3898 aebe 5cc0 303e 2fd4 7fbe
00000220: c8cf b03e ef33 85bd 6e62 8a3e dce7 9e3e
00000230: 1e38 22bf 6649 b53d b3af fb3d 2c39 9c3b
00000240: 8e34 7e3e c937 48be 688b 9fbe 0ab1 103d
00000250: 7b54 59be 8c17 853e d596 b23d 9ea3 353e
00000260: 4b98 d63e f8fb a5bd 9a0e 8a3e 365d fc3e
00000270: c32d dbbd 59e4 003f 56ec 063d 7eaf 953e
00000280: 3633 b23d f35c 3f3e 4f0c ae3c 0766 bebd
00000290: 28fc 66bd eb3f 8dbd 2ab7 c33d 4737 24be
000002a0: 8020 28bf e918 193f 95a4 10bf 70a8 57bd
000002b0: c056 453e 66f5 3dbe 2a35 f2bd 7e8f 6cbd
000002c0: 4509 3dbf c72e 313e c851 02bd da8c 76bd
000002d0: 44a7 a13e 6b08 853e 4ccb 32bf 1008 b93e
000002e0: 74d0 da3e 2bfe 2cbe 9046 0e3d 4e3f 9a3e
000002f0: 7efc f2be b8e0 c3bc 4cff 3fbe fcf4 e8be
00000300: cd16 27bf 254a b33e 8971 df3d e14b 033f
00000310: 8cd5 633e 0749 633e 51f3 893e de86 243e
00000320: 4f39 1cbe b467 113d 617e 1a3d b50e 65be
00000330: 1a61 e33d 89bc 283d 1ac4 ae3b d867 2cbd
00000340: e87b b63e e5b7 aabe c1fc e8bb 72be 5a3d
00000350: 4be9 9fbe ff1a c43c ecca 103d e361 e83b
00000360: c216 14be cca7 04be ca0c 623d 9295 be3d
00000370: 7786 d23d 52ca 5a3d f630 01be 5c7b ffbe
00000380: 99d7 93be 712b f3bd bc80 e63c 05b1 b03e
00000390: e5cc d1bb 8259 0a3c fabd a13e 227c 2dbf
000003a0: c361 823d 3852 643f 48c8 a23e 7441 953d
000003b0: 7a0e ae3e ca0b 3bbc c09b 89be b0cb a7bd
000003c0: e188 173e 9e4f 103e ec2b 35be 5f5c 1e3e
000003d0: a83c f6be 8373 803e 9924 403e 6fee d3bc
000003e0: a6bc 8ebc 5c5a 3dbf 785b 51bf 48c6 4ebd
000003f0: 9b50 c8be 9020 a33e 2757 9cbe 412a c8bc
-0.21260361 -0.32035008 -0.14043246 0.23511377 -0.09050023 -0.62352777 -0.29880583 -0.3308772
0.17310801 -0.11618104 -0.26244733 0.20981275 -0.03115402 0.23880729 -0.52819175 0.16888554
0.03510502 -0.17259665 0.19876008 0.19854428 -0.12416742 -0.0047671036 0.078043476 0.017328234
0.19246341 0.03211203 0.17324151 0.17306711 -0.6285946 -0.13012643 -0.1694443 0.13683474
-0.06374136 0.38634032 0.17786576 0.18593766 0.18578425 0.4346427 -0.084772356 0.058450777
-0.09644407 -0.5999956 0.438099 -0.1051082 -0.008903497 0.26650617 -0.39968172 0.2037972
0.19297001 -0.35267505 -0.23000985 0.018731657 -0.015485621 0.18709213 -0.4813479 -0.05612929
0.13677236 0.1600805 0.39889285 -0.6945716 0.18850857 0.24521306 0.1699127 -0.2453568
-0.16327383 -0.018090917 -0.49588004 -0.132419 -0.088725545 -0.0324601 -0.46946347 -0.5874577
-0.6673462 -0.054293144 -0.15505037 0.19747524 0.37077737 0.104194984 -0.048347894 0.1127922
-0.044588383 -0.143886 0.1195701 0.22319177 0.18633924 -0.63636655 -0.05208593 0.4959017
-0.31190532 -0.1705316 -0.15162571 0.11977273 0.003078087 -0.020833647 0.18949078 -0.32181898
-0.46329665 0.56510603 -0.103657596 -0.06692812 -0.2119724 -0.2248862 0.13352184 0.20060411
-0.007488411 0.30777487 0.05049892 -0.4541607 0.15925303 0.16044912 -0.0188144 0.30047616
-0.27216467 0.45938352 0.22620119 0.08057275 -0.2514824 0.15747263 0.18732151 0.24407321
-0.08326948 -0.1563786 -0.19287822 -0.27863127 0.16491196 -0.23019803 -0.1988167 -0.14156045
-0.20187013 -0.06684746 0.40730384 -0.23540227 0.22732432 -0.3410051 0.1726088 -0.24983285
0.34533525 -0.06504046 0.2702822 0.3103627 -0.6336688 0.0885189 0.12289371 0.0047675576
0.24824736 -0.1955253 -0.31161046 0.035325088 -0.21223633 0.25994527 0.08720175 0.17738196
0.41913065 -0.081047 0.26964265 0.49289864 -0.10702088 0.5034843 0.03294023 0.29235452
0.08701174 0.18687801 0.021246104 -0.09296804 -0.05639282 -0.06896957 0.0955642 -0.16036712
-0.6567459 0.59803635 -0.5650113 -0.05265087 0.19271374 -0.18550643 -0.118265465 -0.057754032
-0.7384227 0.17303 -0.031816274 -0.06019292 0.31572926 0.25982985 -0.69841456 0.36138964
0.42737162 -0.16893832 0.034735262 0.30126423 -0.4745826 -0.023910865 -0.18749732 -0.45499408
-0.65269166 0.35017505 0.10910327 0.5128766 0.2224943 0.22195826 0.26943448 0.16067073
-0.15256236 0.03549929 0.03771818 -0.22368892 0.11102505 0.041195426 0.0053334357 -0.04209122
0.35641408 -0.33343425 -0.0071102087 0.05340428 -0.31232676 0.023938654 0.03534977 0.007091747
-0.14461806 -0.12954634 0.055187978 0.09305872 0.102795534 0.053415604 -0.12616333 -0.49898803
-0.28875425 -0.1187352 0.028137557 0.34510055 -0.006402599 0.008444192 0.31590253 -0.67767537
0.06366303 0.89187956 0.31793427 0.07287875 0.3399542 -0.011416385 -0.2687664 -0.08193147
0.14798309 0.14092872 -0.17692536 0.15464924 -0.48093152 0.25088128 0.18763961 -0.02587053
-0.017423939 -0.73966 -0.81780195 -0.050482064 -0.39123997 0.3186078 -0.30535242 -0.02443421

bias f4 [2]
00000000: 755b f53c ec29 a53c
0.029950837 0.020161591
