lab2/problem2/neural-network-2-critic.pth (torch, 340511 bytes, 5 tensors)

weight f4 [400, 8]
-0.055562474 -0.37742797 1.2774464 0.27590328 0.39463377 -0.02687426 0.22242928 0.34320888
0.013466748 0.016657753 0.0010917016 0.017457863 -1.8538288 0.19923423 0.04493597 -0.44274846
0.16452162 -0.94960344 0.14192404 -0.42672867 -0.23786317 0.3847561 -0.06846286 0.15336953
-0.16816357 0.061083607 -0.37026283 -0.7501066 -0.2736264 0.26925084 0.0514849 -0.28999093
0.34567794 -1.4030753 0.28645727 -0.01590515 -0.28640664 -0.38699043 0.029319847 -0.10650257
0.45948568 -0.29340944 1.0069251 0.12959076 1.0292628 -0.2116353 0.06241615 0.13095166
0.40682665 -0.16456616 -0.5283295 -0.19022171 0.11335677 -1.0393283 -0.44626978 -0.18893078
0.09789447 -1.1591377 -0.074862845 -0.7419965 0.66061306 -0.2553123 -0.78025913 0.20708996
-0.4462123 -0.16061957 -0.46308562 0.88018346 -0.14955933 -0.3492608 0.12835929 -0.045296196
-0.25919577 0.08971166 0.3769651 -0.15373842 0.28260243 -0.032448947 -0.6345651 -0.12511857
-0.14196248 -0.64510083 0.26124808 0.59684205 -0.25913566 -0.41599184 0.24342713 0.17054369
-0.24955617 -0.5798646 0.47634447 0.060386173 -0.14696157 0.040940393 0.06193328 0.1334544
0.16549902 -0.0058905203 -0.8952324 -0.080566525 -0.8342177 0.2718936 -0.65920603 -0.30529767
0.030636499 0.007916481 0.21897656 0.18142897 1.3543987 0.9564963 -0.80926925 -0.8351139
-0.27430502 -0.05002631 0.7176861 -0.21625926 -0.67647666 -0.15929534 -0.283233 -0.30594397
0.044747565 -0.27962893 -0.6507147 0.8304846 -0.89797777 0.43055794 0.117152244 0.049803622
0.08143541 -0.050461486 0.39923495 -0.44037998 -0.42413166 0.80531853 -0.25098744 -0.044676483
0.01869257 -0.3680451 0.42522064 0.33424142 0.3032824 -1.1127517 -0.04742057 0.07039858
0.1635301 0.10737341 0.32842267 -0.0971721 1.3584737 -0.37186414 -0.31332803 -0.41230989
-0.45165366 -0.48441258 0.083186954 0.0943985 -0.3849906 0.56838226 0.24001177 -0.44133008
-0.3105483 -0.7161616 0.20208521 -0.28898656 -0.08029035 -0.9305049 -0.23156814 -0.06874156
0.025831446 0.032009523 0.49648753 -0.2964997 0.6220235 -0.45800424 -0.78847975 -0.3791927
0.24447855 -0.020860652 0.12609342 0.53027916 0.4344159 0.6447433 0.27149075 -0.07296667
-0.36240068 -0.16667113 0.9427404 -0.3911996 0.22865337 0.31386313 -0.54518205 -1.0950979
0.35660693 0.13837981 -0.13774638 -0.58621275 -1.4323378 -0.04795281 -0.0032289978 0.0006365544
-0.025338935 -0.7700735 0.5962168 -0.21705781 0.5037633 -0.6049021 -0.28570077 0.2323476
0.30651423 0.12468528 0.3273901 -0.57728356 0.98152274 -0.28271323 0.047410987 -0.5493022
-0.30393904 0.2159515 0.63776344 -0.38832778 -0.16351037 0.9480013 -0.47590992 -0.14793755
-0.25567812 -0.5100132 0.7314639 0.23597762 0.70559156 -0.18484744 0.088240094 0.050257105
-0.44274238 -1.2924174 0.8636753 -0.20883165 0.03420916 0.7638589 0.060563654 0.10113151
-0.020393329 0.023828622 0.6846702 0.61223656 -0.11467603 0.08062878 -0.121134825 0.75336295
0.6294101 0.15233602 -0.4910662 -0.23460944 0.5455863 0.43635908 0.041420907 0.31519842
00000000: 7a95 63bd 3d3e c1be 5d83 a33f 3243 8d3e
00000010: 700d ca3e 6827 dcbc 80c4 633e 13b9 af3e
00000020: a3a3 5c3c d775 883c 6d17 8f3a cb03 8f3c
00000030: 434a edbf 0f04 4c3e c80e 383d edaf e2be
00000040: 5b78 283e 3619 73bf 8954 113e 2e7c dabe
00000050: 6792 73be c0fe c43e 4236 8cbd e70c 1d3e
00000060: 1233 2cbe ce32 7a3d 1793 bdbe fc06 40bf
00000070: c218 8cbe 3fdb 893e d5e1 523d b179 94be
00000080: b3fc b03e f997 b3bf 87aa 923e 844b 82bc
00000090: e4a3 92be 9c23 c6be 2d30 f03c 051e dabd
000000a0: b541 eb3e c339 96be ece2 803f 71b3 043e
000000b0: e2be 833f edb6 58be 14a8 7f3d 3118 063e
000000c0: 954b d03e 0884 28be 9a40 07bf 7bc9 42be
000000d0: 9827 e83d b608 85bf 797d e4be 1277 41be
000000e0: e57c c83d a05e 94bf b151 99bd 7cf3 3dbf
000000f0: f01d 293f 4bb8 82be 10bf 47bf 640f 543e
00000100: f075 e4be 7579 24be 8f19 edbe b453 613f
00000110: 1526 19be 50d2 b2be 9e70 033e 8188 39bd
00000120: 4fb5 84be bfba b73d 9201 c13e 9b6d 1dbe
00000130: 44b1 903e 30e9 04bd dc72 22bf 151f 00be
00000140: 9d5e 11be 5425 25bf 4fc2 853e a4ca 183f
00000150: 6ead 84be e2fc d4be f644 793e 01a3 2e3e
00000160: a78b 7fbe 0272 14bf 6ce3 f33e 7e57 773d
00000170: 187d 16be 1db1 273d c0ad 7d3d 45a8 083e
00000180: 9378 293e 4405 c1bb f32d 65bf 1000 a5bd
00000190: 4b8f 55bf a335 8b3e bac1 28bf fa4f 9cbe
000001a0: 65f9 fa3c 21b4 013c 643b 603e 84c8 393e
000001b0: f05c ad3f f1dc 743f 452c 4fbf 06ca 55bf
000001c0: b571 8cbe 63e8 4cbd 47ba 373f 1173 5dbe
000001d0: 932d 2dbf 511e 23be ea03 91be b0a4 9cbe
000001e0: 3949 373d 862b 8fbe 3d95 26bf a49a 543f
000001f0: dfe1 65bf 1772 dc3e 84ed ef3d e2fe 4b3d
00000200: 9cc7 a63d b4b0 4ebd 8668 cc3e 7c79 e1be
00000210: c927 d9be 5b29 4e3f 6d81 80be b0fe 36bd
00000220: 2921 993c 6870 bcbe 85b6 d93e b121 ab3e
00000230: d547 9b3e a66e 8ebf 123c 42bd 212d 903d
00000240: 6f74 273e 97e6 db3d 0427 a83e 2a02 c7bd
00000250: 77e2 ad3f fa64 bebe 886c a0be 481a d3be
00000260: 263f e7be ed04 f8be ec5d aa3d 0054 c13d
00000270: 7d1d c5be 8081 113f a5c5 753e 04f6 e1be
00000280: 3000 9fbe 5e56 37bf 6def 4e3e 0cf6 93be
00000290: 446f a4bd 9235 6ebf 3320 6dbe 60c8 8cbd
000002a0: 789c d33c 6b1c 033d 9d33 fe3e cfce 97be
000002b0: ef3c 1f3f 887f eabe cfd9 49bf 8c25 c2be
000002c0: 9658 7a3e f5e3 aabc a21e 013e 60c0 073f
000002d0: c36b de3e e60d 253f d600 8b3e 8d6f 95bd
000002e0: 958c b9be d6ab 2abe 6f57 713f 504b c8be
000002f0: 1c24 6a3e abb2 a03e 0d91 0bbf 2b2c 8cbf
00000300: 2f95 b63e 70b3 0d3e 630d 0dbe 0a12 16bf
00000310: d856 b7bf 2a6a 44bd 989d 53bb 71de 263a
00000320: 9993 cfbc 8923 45bf aaa1 183f 6744 5ebe
00000330: a2f6 003f ddda 1abf 5f47 92be 87ec 6d3e
00000340: 6fef 9c3e ff5a ff3d ad9f a73e dbc8 13bf
00000350: 1345 7b3f cabf 90be 0632 423d 129f 0cbf
00000360: e69d 9bbe 6422 5d3e 7744 233f e6d2 c6be
00000370: 436f 27be 37b0 723f 77aa f3be f17c 17be
00000380: 3ee8 82be 3a90 02bf 3841 3b3f 1ea4 713e
00000390: a6a1 343f a648 3dbe 39b7 b43d 65da 4d3d
000003a0: 21af e2be ef6d a5bf d319 5d3f f7d7 55be
000003b0: e71e 0c3d 428c 433f 9811 783d 0a1e cf3d
000003c0: e90f a7bc 3e34 c33c 8c46 2f3f 89bb 1c3f
000003d0: 44db eabd b420 a53d 8915 f8bd 65dc 403f
000003e0: 0521 213f f9fd 1b3e 076d fbbe 753d 70be
000003f0: 8bab 0b3f 756a df3e f8a8 293d b061 a13e

bias f4 [400]
-0.28280658 -0.007293273 -0.3243117 -0.06921956 -0.33271345 0.017552372 0.13379951 -0.21911451
-0.18442397 -0.40973002 0.07482528 0.28337717 0.011938058 0.060406234 0.23163618 0.075395435
0.073326126 -0.12666212 0.21408996 -0.38856313 0.073446065 0.15059966 0.16062711 0.28955692
0.16641521 -0.07934961 0.07553625 0.099298365 0.015767826 0.018608088 0.15731877 -0.4520284
-0.37462622 -0.051154196 0.27743906 -0.49294993 -0.5317683 -0.4226582 0.02013374 -0.34378836
-0.23834904 0.045103118 -0.19386107 -0.06481471 -0.10541583 0.11634893 0.002989672 0.22608879
0.06652768 -0.23824772 -0.12744169 0.19204132 0.11642713 -0.0911081 0.011014418 0.057426494
0.11002611 0.08827112 0.09078731 0.015819937 -0.40704572 0.1418415 -0.14927919 -0.052878
-0.254966 -0.00085282384 0.079221606 -0.16785601 0.14494814 0.034087252 -0.4470308 0.1220304
-0.49463895 -0.104171015 -0.23608938 0.07499544 0.04231714 0.040710893 -0.55311286 -0.05326746
-0.34000084 -0.12519011 -0.07607991 -0.24169502 -0.38216943 0.08694949 0.09972961 -0.4415839
-0.030763077 0.10866688 -0.5230212 0.296395 0.1686445 0.036183544 -0.036672864 0.12597862
-0.37316948 0.10127104 -0.5435398 0.027553076 0.17484874 -0.27350715 -0.07525907 -0.490596
-0.49849343 -0.33366928 -0.2559788 0.20174845 -0.038084567 -0.5357415 0.09263615 -0.3792176
-0.12305219 -0.18388472 0.11116215 0.03960735 -0.38281468 0.16296397 0.011020028 0.10493294
0.04432639 -0.1696321 0.20829614 0.05586419 -0.32829756 -0.23192132 -0.052025095 -0.1263952
-0.24326248 0.029989567 -0.32345605 -0.48264056 -0.5213539 -0.030243985 -0.40835348 -0.02468547
-0.012321024 -0.16126111 0.07860785 0.24787131 0.02434711 -0.063598074 -0.08524765 -0.32591906
-0.11047859 -0.005727909 -0.056385785 -0.24995574 -0.22827822 0.20062882 -0.43602931 0.14850086
-0.11808188 0.14435738 -0.27543962 -0.003996984 -0.24631311 -0.19613208 -0.27196455 0.0022455452
-0.13282691 -0.34395117 0.06549712 -0.1914635 -0.42713052 0.14593637 -0.0055203657 -0.5806903
0.061425578 -0.12898158 0.03325287 0.32353762 0.21464081 -0.26276857 0.046536367 0.20324324
-0.31219172 -0.25919974 -0.06399332 -0.49216288 0.10684904 0.15529235 -0.37593216 0.06565871
0.092203654 0.19343391 -0.12178351 -0.20165099 -0.5248035 -0.23003224 0.092893556 -0.36438707
-0.3544084 0.13834402 -0.5582651 0.029758692 -0.39692482 -0.060159706 -0.23130909 0.13397259
-0.33421 0.011584862 0.19214681 0.12288679 -0.39952388 0.1664846 -0.3586917 -0.35668278
-0.007647394 -0.19302788 -0.10016436 0.3172437 -0.31068152 -0.0048637874 0.014388628 0.0266129
-0.11391408 -0.27159727 0.22899945 0.37653762 -0.1824952 -0.09586218 0.013515695 0.08915079
-0.5858106 -0.28598246 -0.0068195104 0.0755477 -0.13137291 -0.01791578 0.21294281 -0.24885634
-0.23947409 -0.26690674 -0.11428093 0.17592579 0.09230106 0.08676554 -0.25113058 0.08287156
-0.1723243 0.029033711 0.098576345 0.11765704 0.098924935 0.085762836 -0.11736974 -0.38904804
-0.16135158 -0.37774447 -0.14951193 0.1832872 -0.26661292 -0.1495544 -4.2087373e-05 0.2406962
00000000: 06cc 90be 69fc eebb 2f0c a6be fcc2 8dbd
00000010: 6b59 aabe fec9 8f3c bd02 093e 8e5f 60be
00000020: a3d9 3cbe 22c8 d1be ff3d 993d d016 913e
00000030: d897 433c 876c 773d 0932 6d3e ec68 9a3d
00000040: 022c 963d b7b3 01be 663a 5b3e bff1 c6be
00000050: e46a 963d cc36 1a3e 6f7b 243e ce40 943e
00000060: c068 2a3e 0c82 a2bd c0b2 9a3d f15c cb3d
00000070: 872b 813c fd6f 983c 2c18 213e 4470 e7be
00000080: 02cf bfbe 1087 51bd 7e0c 8e3e ef63 fcbe
00000090: f821 08bf a866 d8be 83ef a43c 0705 b0be
000000a0: c511 74be 0cbe 383d 8483 46be 93bd 84bd
000000b0: 41e4 d7bd 5948 ee3d 5fee 433b d283 673e
000000c0: aa3f 883d 36f7 73be 1380 02be 7ba6 443e
000000d0: 5971 ee3d e296 babd d175 343c 0b38 6b3d
000000e0: 5f55 e13d 7dc7 b43d b2ee b93d d098 813c
000000f0: 4c68 d0be e63e 113e a5dc 18be 9a96 58bd
00000100: e78a 82be 0a90 5fba f03e a23d 72e2 2bbe
00000110: 496d 143e 139f 0b3d 39e1 e4be 13eb f93d
00000120: 5141 fdbe 9d57 d5bd 6ac1 71be 3697 993d
00000130: bd54 2d3d 77c0 263d ce98 0dbf fb2e 5abd
00000140: 9714 aebe d631 00be c9cf 9bbd e67e 77be
00000150: b6ab c3be 9312 b23d 0a3f cc3d 4917 e2be
00000160: d902 fcbc be8c de3d b8e4 05bf 16c1 973e
00000170: 25b1 2c3e 3235 143d 4936 16bd 8a00 013e
00000180: 1210 bfbe 3167 cf3d 6d25 0bbf fdb6 e13c
00000190: 8c0b 333e 2109 8cbe 6d21 9abd 662f fbbe
000001a0: 883a ffbe b3d6 aabe a70f 83be 2597 4e3e
000001b0: 90fe 1bbd 5b26 09bf 06b8 bd3d cf28 c2be
000001c0: c902 fcbd 474c 3cbe fba8 e33d 513b 223d
000001d0: 4900 c4be 07e0 263e 598d 343c 15e7 d63d
000001e0: 978f 353d 0ab4 2dbe 954b 553e d9d1 643d
000001f0: 9e16 a8be c87c 6dbe 4418 55bd be6d 01be
00000200: cd19 79be aeac f53c 089c a5be aa1c f7be
00000210: 7377 05bf 3cc2 f7bc b513 d1be 2f39 cabc
00000220: 1fde 49bc a221 25be 27fd a03d fad1 7d3e
00000230: 9773 c73c b53f 82bd 5296 aebd ddde a6be
00000240: 9942 e2bd 2fb1 bbbb c8f4 66bd 66f4 7fbe
00000250: c4c1 69be a471 4d3e 3c3f dfbe 9c10 183e
00000260: ead4 f1bd 6cd2 133e 6c06 8dbe 22f9 82bb
00000270: 8139 7cbe d9d6 48be f03e 8bbe ff29 133b
00000280: c703 08be 5e1a b0be 5b23 863d 020f 44be
00000290: dab0 dabe 5870 153e 2fe4 b4bb 1fa8 14bf
000002a0: 6399 7b3d bf13 04be 2934 083d b9a6 a53e
000002b0: cdca 5b3e 9a89 86be eb9c 3e3d ff1e 503e
000002c0: 98d7 9fbe d4b5 84be ee0e 83bd c6fc fbbe
000002d0: abd3 da3d f504 1f3e 2e7a c0be 1378 863d
000002e0: 45d5 bc3d 8a13 463e a269 f9bd 997d 4ebe
000002f0: 8659 06bf 928d 6bbe fa3e be3d f190 babe
00000300: 0575 b5be 0eaa 0d3e 76ea 0ebf 80c8 f33c
00000310: bb39 cbbe 066a 76bd 4adc 6cbe 1c30 093e
00000320: 931d abbe 6fce 3d3c 22c2 443e 12ac fb3d
00000330: 658e ccbe f07a 2a3e 70a6 b7be 209f b6be
00000340: fe96 fabb 1aa9 45be f922 cdbd c46d a23e
00000350: a611 9fbe 6860 9fbb 48be 6b3c 4c03 da3c
00000360: c94b e9bd cc0e 8bbe d57e 6a3e 8ac9 c03e
00000370: 06e0 3abe 6453 c4bd ef70 5d3c b094 b63d
00000380: aff7 15bf 4b6c 92be 3376 dfbb c1b8 9a3d
00000390: 9f86 06be 1dc4 92bc ae0d 5a3e 32d4 7ebe
000003a0: b238 75be 00a8 88be 1f0c eabd e425 343e
000003b0: 5708 bd3d 22b2 b13d 3094 80be 90b8 a93d
000003c0: c875 30be 1bd8 ed3c 65e2 c93d 2df6 f03d
000003d0: 2899 ca3d 6da4 af3d 8c5f f0bd 4e31 c7be
000003e0: 5939 25be b967 c1be a819 19be a4af 3b3e
000003f0: 7d81 88be ca24 19be f986 30b8 1179 763e

weight f4 [200, 402]
0.0030530803 -0.016479056 0.021045618 -0.046766307 0.0056874305 -0.05365205 -0.0063036885 0.019764088
-0.031241119 -0.035933316 -0.040921837 -0.06329156 -0.032415096 0.0068818186 -0.04518574 -0.03801024
0.0101072695 0.03206169 -0.041292317 0.015369409 -0.008972257 -0.025482854 -0.04673434 -0.05238531
-0.053036027 -0.034284603 -0.052113052 -0.013481661 -0.011602942 0.03866557 -0.011727102 0.03560069
0.005468536 -0.040408872 0.035661813 -0.031016737 0.025913361 -0.044026833 -0.008054885 0.019503623
0.019207919 -0.018876918 -0.03648673 0.0006479959 -0.056338366 0.0109251365 -0.03615972 -0.034956735
-0.052586712 0.019066982 -0.01648608 -0.03914122 -0.043377127 0.028089918 0.004904072 0.029156625
-0.008565802 -0.04982869 0.035959892 -0.04489062 -0.04884314 -0.0553159 -0.0054667294 -0.0632317
0.038231447 -0.0020250645 0.038404338 0.014261673 -0.04499805 -0.048642617 -0.019596327 -0.008169578
-0.024174483 0.04202982 -0.008217025 -0.0029881746 -0.048807744 0.006990764 -0.013935473 -0.0060009025
-0.0058067776 0.014115925 -0.033648856 0.024449639 -0.037556652 0.0032792736 -0.0106268115 -0.0041338094
0.020409295 0.037367575 -0.034470327 -0.013205439 -0.018789899 -0.0068335887 -0.026069976 -0.021930434
0.016897475 -0.039277665 0.04854732 0.026277676 -0.047107782 0.041258067 -0.044882935 0.036712576
0.04230136 -0.03149022 0.038696684 -0.046524696 0.00058961625 0.007318776 -0.028886274 -0.010630963
-0.026491953 -0.047647566 0.012159301 0.027639076 -0.038652185 -0.0066305017 0.022482937 -0.044100143
-0.06404059 -0.016561426 -0.016671449 -0.032058433 0.03262809 0.044645153 -0.036750823 -0.029863924
0.038747966 -0.0017972961 0.040616065 -0.04740028 -0.014088351 0.03605071 -0.018305875 -0.01304614
-0.051068846 -0.043406066 0.006033591 -0.025487108 -0.042133883 0.03972639 -0.012969436 -0.04781649
0.011485892 -0.009129047 -0.011434053 -0.008055165 0.029722117 -0.03527534 0.046127178 0.0056003034
0.024578169 0.028754976 -0.013224998 0.0065245447 -0.031110583 -0.025792494 -0.04080199 -0.014448132
-0.0010081683 -0.045014087 -0.02827567 -0.044866517 -0.012856451 -0.025284745 -0.040388893 -0.0069378014
-0.034446694 -0.013110738 -0.02209332 -0.046395473 0.025754154 -0.039213546 -0.011754674 0.0055561587
0.044632874 0.03894809 -0.047615882 -0.008367907 0.031549115 -0.020114923 0.01913797 -0.024978045
-0.02474397 -0.028291961 0.00942148 -0.020718519 -0.032202095 0.009698629 -0.009642976 0.0029022926
-0.02486707 -0.015575366 0.032561548 -0.0011490834 0.023939237 -0.038363025 0.03700403 0.013603629
-0.019015197 -0.057090208 0.02318775 0.03304076 0.037896402 -0.011065569 0.017861076 -0.008518522
0.0034595877 0.0041848123 -0.01918276 -0.0072190627 0.017490435 -0.016060157 0.0012329556 -0.017883107
-0.022665951 -0.003468711 -0.0014461632 -0.034575287 -0.0031533677 -0.025043257 -0.01789622 -0.005407194
0.0016983077 0.0079781115 0.023586348 -0.022825645 -0.030884607 0.023090327 0.029401407 -0.008642122
0.025103807 0.036236085 0.0021829754 -0.0153552145 -0.058236163 0.028169766 0.005808667 -0.06640465
-0.038456198 -0.04494301 -0.03975349 0.029978812 0.007164667 -0.0392051 -0.006264077 0.04058873
-0.009017467 -0.03316812 0.01814229 -0.017216884 0.031392895 -0.039395273 -0.062070757 0.01917834
00000000: 3016 483b 16ff 86bc dc67 ac3c 078e 3fbd
00000010: a05d ba3b 41c2 5bbd 2c8f cebb 4ce8 a13c
00000020: 60ed ffbc d02e 13bd a89d 27bd 019f 81bd
00000030: b1c5 04bd e180 e13b af14 39bd a0b0 1bbd
00000040: f698 253c 1e53 033d 2222 29bd f9cf 7b3c
00000050: 6000 13bc 6bc1 d0bc 826c 3fbd fb91 56bd
00000060: 4e3c 59bd 036e 0cbd 7f74 55bd 2fe2 5cbc
00000070: 441a 3ebc ca5f 1e3d 0823 40bc 07d2 113d
00000080: 6831 b33b c683 25bd 1f12 123d d016 febc
00000090: 4248 d43c 7b55 34bd a3f8 03bc 10c6 9f3c
000000a0: ed59 9d3c c4a3 9abc 1c73 15bd 45de 293a
000000b0: 0fc3 66bd 58ff 323c 371c 14bd cb2e 0fbd
000000c0: 2a65 57bd 5c32 9c3c d10d 87bc 8b52 20bd
000000d0: 37ac 31bd d41c e63c 56b2 a03b e0d9 ee3c
000000e0: 9457 0cbc 2b19 4cbd ae4a 133d 3adf 37bd
000000f0: bf0f 48bd ed92 62bd 4022 b3bb 9f7f 81bd
00000100: 9498 1c3d f2b6 04bb de4d 1d3d cba9 693c
00000110: e04f 38bd 7b3d 47bd 7a88 a0bc b2d9 05bc
00000120: 9109 c6bc 7627 2c3d b3a0 06bc 40d5 43bb
00000130: a1ea 47bd c712 e53b 9c51 64bc 38a3 c4bb
00000140: c846 bebb 7b46 673c 62d3 09bd 9c4a c83c
00000150: 01d5 19bd 15e9 563b 141c 2ebc e874 87bb
00000160: 6531 a73c be0e 193d c230 0dbd a05b 58bc
00000170: 46ed 99bc 4cec dfbb b490 d5bc 74a7 b3bc
00000180: 936c 8a3c 9ee1 20bd 8ed9 463d 4844 d73c
00000190: 17f4 40bd 38fe 283d 2bd7 37bd ed5f 163d
000001a0: 3144 2d3d e4fb 00bd 6a80 1e3d ae90 3ebd
000001b0: 7a90 1a3a 58d2 ef3b e8a2 ecbc 7e2d 2ebc
000001c0: a705 d9bc 182a 43bd ce37 473c 586b e23c
000001d0: c151 1ebd ae44 d9bb 232e b83c 5aa2 34bd
000001e0: b627 83bd d4ab 87bc 9092 88bc b44f 03bd
000001f0: 08a5 053d d6dd 363d 0888 16bd 30a5 f4bc
00000200: 30b6 1e3d 4093 ebba 085d 263d cc26 42bd
00000210: d4d2 66bc e9a9 133d 34f6 95bc 7abf 55bc
00000220: 912d 51bd 8fca 31bd 6eb5 c53b 57ca d0bc
00000230: 9494 2cbd 24b8 223d c27d 54bc 39db 43bd
00000240: 532f 3c3c 0092 15bc e555 3bbc d0f9 03bc
00000250: cc7b f33c e07c 10bd daef 3c3d c082 b73b
00000260: 2858 c93c 8e8f eb3c a9ad 58bc d9cb d53b
00000270: 9fdb febc c84a d3bc fd1f 27bd dcb7 6cbc
00000280: 8424 84ba b160 38bd 61a2 e7bc f4c5 37bd
00000290: dda3 52bc f421 cfbc d36e 25bd 7f56 e3bb
000002a0: fa17 0dbd 6cce 56bc 0dfd b4bc 2e09 3ebd
000002b0: 60fa d23c 629e 20bd ad96 40bc 7010 b63b
000002c0: f6d0 363d 0888 1f3d df08 43bd 8c19 09bc
000002d0: a539 013d 0dc8 a4bc 3bc7 9c3c c29e ccbc
000002e0: deb3 cabc 8bc4 e7bc 8d5c 1a3c e2b9 a9bc
000002f0: 58e6 03bd 00e7 1e3c 93fd 1dbc 6434 3e3b
00000300: 07b6 cbbc d22f 7fbc 425f 053d d79c 96ba
00000310: 381c c43c 8c22 1dbd 8a91 173d c1e1 5e3c
00000320: c2c5 9bbc 6cd7 69bd 3cf4 bd3c bf55 073d
00000330: 4239 1b3d 5c4c 35bc 6451 923c 4591 0bbc
00000340: 40ba 623b c020 893b 2a25 9dbc e38d ecbb
00000350: 1a48 8f3c 9790 83bc 209b a13a 987f 92bc
00000360: f2ad b9bc 5053 63bb 2f8d bdba d19e 0dbd
00000370: bba8 4ebb 8427 cdbc 189b 92bc d52e b1bb
00000380: c099 de3a a0b6 023c 2838 c13c d9fc babc
00000390: b701 fdbc ed27 bd3c 38db f03c b097 0dbc
000003a0: 80a6 cd3c 4a6c 143d 4010 0f3b 7094 7bbc
000003b0: 0b89 6ebd 48c4 e63c a156 be3b 29ff 87bd
000003c0: 3f84 1dbd 2916 38bd 8ed4 22bd 2096 f53c
000003d0: 95c5 ea3b 8795 20bd e342 cdbb 5e40 263d
000003e0: ffbd 13bc 4bdb 07bd 249f 943c 6c0a 8dbc
000003f0: d695 003d f05c 21bd e83d 7ebd e51b 9d3c

bias f4 [200]
-0.048229847 0.16488586 -0.01845042 0.14286274 -0.033319946 -0.05860197 -0.24212822 0.04553736
-0.04520492 -0.034914114 0.039009053 0.008788738 0.08518115 -0.009897671 -0.037305187 0.11581725
-0.15747736 -0.011194434 -0.28121248 -0.055785056 -0.05146698 -0.050979175 0.025426695 0.14778988
0.012239038 0.032612175 -0.016321398 -0.012109214 -0.027563991 -0.059720125 0.087543756 -0.0049900585
-0.022533048 0.060894504 0.028023858 -0.28365135 -0.049386356 -0.013332294 0.07164831 -0.038858537
-0.057626314 0.00981316 -0.015686894 0.091917746 -0.008463529 -0.09966395 0.1765329 0.033469565
0.010467638 0.0055356175 0.004148238 0.095082186 0.032737423 0.04274897 -0.14622816 0.018136747
0.10207166 0.016702913 -0.016146038 -0.18868613 -0.05025326 0.08463549 -0.019371985 -0.038283486
-0.021401672 0.015277168 0.09990712 0.10042503 0.08223074 -0.1739742 -0.23480357 0.06606616
0.14489417 0.100636505 -0.029450677 0.040482044 -0.07528043 0.2154347 0.1346405 0.054216698
0.018394448 0.10077259 -0.030036258 -0.20487902 -0.013348891 0.030045347 -0.022487829 -0.03359956
-0.08312077 -0.013171891 -0.10229849 0.19112398 0.22415337 -0.058689263 0.10912127 0.07836875
0.02357827 -0.10896487 -0.18071193 -0.06112549 -0.026579807 -0.1894731 -0.19012117 0.09415612
0.15416706 -0.053276267 -0.06967168 -0.08141174 -0.014024701 -0.17325626 0.11019591 -0.026935915
0.14986399 0.12127492 0.1148041 0.14584425 0.08976634 0.08612299 0.020319693 -0.03295381
-0.1272648 -0.075460285 -0.13946645 -0.0049042706 0.11904628 -0.006125316 0.09866184 -0.25092804
0.10666511 -0.1326735 0.1856969 -0.05323496 -0.048355505 -0.035426486 0.12604499 -0.015977431
0.018930579 -0.15402111 0.008945499 -0.03765866 0.00095952966 -0.10868137 -0.035768457 -0.010365598
0.005295788 0.06680042 -0.008066339 0.1120232 0.0015598381 -0.037215557 -0.044831023 -0.033995688
-0.021347966 -0.16359164 0.0047146976 0.0075962185 0.12872718 0.0021738126 -0.008214109 0.122881226
-0.21183029 -0.018000389 -0.3927472 -0.021478796 0.17578664 -0.0855024 0.06466576 0.01572284
0.058340594 -0.009626073 0.14604129 -0.02141684 -0.0033275755 0.09905456 0.027715981 0.095331244
-0.07303115 -0.009659185 -0.050577365 0.080403514 -0.060989384 0.06473758 -0.11234829 0.026757747
0.08074257 -0.044144873 -0.26428416 0.27998576 -0.1523598 -0.008486363 -0.04946127 -0.044346675
0.2908341 -0.025461879 0.10330707 -0.12864143 0.116448104 -0.21736088 0.025149602 -0.27550104
00000000: a98c 45bd d7d7 283e 5625 97bc 9c4a 123e
00000010: 7f7a 08bd 9f08 70bd 76f0 77be 6285 3a3d
00000020: cb28 39bd 1a02 0fbd f5c7 1f3d a4fe 0f3c
00000030: 7473 ae3d d729 22bc 53cd 18bd 9831 ed3d
00000040: bf41 21be dc68 37bc 15fb 8fbe df7e 64bd
00000050: 0acf 52bd 8acf 50bd a54b d03c 3b56 173e
00000060: 3f86 483c 5894 053d 74b4 85bc ba65 46bc
00000070: e1cd e1bc 179d 74bd 244a b33d a583 a3bb
00000080: 3a97 b8bc 846c 793d 4a92 e53c c03a 91be
00000090: 5949 4abd b26f 5abc 59bc 923d 212a 1fbd
000000a0: 9209 6cbd 60c7 203c cd81 80bc 5f3f bc3d
000000b0: 9daa 0abc 9d1c ccbd 0ac5 343e 6217 093d
000000c0: 7580 2b3c 2064 b53b f1ed 873b 73ba c23d
000000d0: ad17 063d 8b19 2f3d d6bc 15be 8493 943c
000000e0: f20a d13d 8cd4 883c b244 84bc f036 41be
000000f0: 5dd6 4dbd 5f55 ad3d ffb1 9ebc 25cf 1cbd
00000100: 8f52 afbc 164d 7a3c 1b9c cc3d a3ab cd3d
00000110: 9768 a83d 4b26 32be 5970 70be b24d 873d
00000120: 235f 143e 831a ce3d 8c42 f1bc 80d0 253d
00000130: a02c 9abd ea9a 5c3e 33df 093e 5412 5e3d
00000140: f4af 963c dc61 ce3d 990e f6bc cecb 51be
00000150: 4fb5 5abc a921 f63c 6538 b8bc b19f 09bd
00000160: 393b aabd eace 57bc df81 d1bd 01b6 433e
00000170: 7688 653e 2764 70bd f97a df3d cc7f a03d
00000180: 3727 c13c f928 dfbd 8c0c 39be b95e 7abd
00000190: e5bd d9bc 3c05 42be 20af 42be edd4 c03d
000001a0: f8dd 1d3e 3738 5abd 07b0 8ebd 33bb a6bd
000001b0: dcc7 65bc 176a 31be 65ae e13d b5a8 dcbc
000001c0: f275 193e fc5e f83d 691e eb3d 3258 153e
000001d0: 6ad7 b73d 4061 b03d 7c75 a63c 93fa 06bd
000001e0: b451 02be ec8a 9abd 4bd0 0ebe 01b4 a0bb
000001f0: 89ce f33d e0b6 c8bb 380f ca3d a479 80be
00000200: 3d73 da3d 90db 07be 5427 3e3e e70c 5abd
00000210: 6c10 46bd 5d1b 11bd f011 013e 1ae3 82bc
00000220: 4d14 9b3c b6b7 1dbe 2490 123c f83f 1abd
00000230: f288 7b3a 5794 debd f281 12bd 78d4 29bc
00000240: 4a88 ad3b a9ce 883d ae28 04bc 6b6c e53d
00000250: 7b73 cc3a 576f 18bd bca0 37bd 103f 0bbd
00000260: eee1 aebc 9184 27be c07d 9a3b b3e9 f83b
00000270: 0fd1 033e 8676 0e3b 7894 06bc 27a9 fb3d
00000280: 0aea 58be 8d75 93bc 2916 c9be 4df4 afbc
00000290: 6a01 343e e21b afbd 7b6f 843d 2fcd 803c
000002a0: 8cf6 6e3d adb6 1dbc d98b 153e 5e72 afbc
000002b0: 7413 5abb 1edd ca3d a00c e33c 073d c33d
000002c0: 5b91 95bd 8f41 1ebc 362a 4fbd 99aa a43d
000002d0: 01d0 79bd 2395 843d dc16 e6bd 1033 db3c
000002e0: 5c5c a53d 41d1 34bd 4150 87be 4b5a 8f3e
000002f0: 3504 1cbe 630a 0bbc e797 4abd dca4 35bd
00000300: 35e8 943e 6e95 d0bc a892 d33d 94ba 03be
00000310: 587c ee3d da93 5ebe 8a06 ce3c 790e 8dbe

weight f4 [1, 200]
0.0024876338 0.33618358 0.9238813 0.38528162 0.013865931 0.013067937 -1.109876 -0.39274362
0.022823406 0.005642115 -0.16153508 0.038785506 -0.12061247 0.051321883 -0.058913346 0.8299972
0.18457508 -0.32776803 -1.3937532 -0.5718274 -0.5049115 -1.053873 -0.5791895 1.6070309
-0.31286305 0.002219697 0.04292639 0.41495562 -0.13003153 -0.0019041654 -0.1768122 0.06282702
0.00011669131 0.2579659 0.010530204 -0.74026483 -0.0023681289 0.0014184474 -0.11088665 -0.5611423
-0.32861665 -0.00784643 -0.5030621 -0.0935441 4.4081764e-05 -0.38936555 1.293296 -0.27650037
0.047984134 -0.6812065 0.03617068 -0.4662207 0.06588869 -0.36558142 -0.43156594 0.19398098
-0.090648755 -0.8762362 0.027637573 -0.5085029 0.016117621 -0.14975965 0.052419327 0.019647209
-0.00030135718 0.014206892 -0.11204323 -0.25210297 -0.9056528 -0.88660556 -0.29353744 -0.11177239
-0.11294296 -0.22634082 0.04318546 -0.68321836 0.0044213976 -0.26040158 -0.1289727 -1.1198384
0.011462078 -0.15918724 0.055283017 -0.29770902 -0.001420035 -0.30441347 -0.0006550176 0.032448452
-0.60254276 -0.009557379 1.0847389 -0.2991439 1.245107 0.035121966 -0.15311155 -0.4801782
-0.5810245 -0.12946618 1.0345383 0.036062736 0.005746114 -1.3123777 -0.36949122 -0.3686068
-0.61864555 -0.29383004 -1.2469369 -1.0925326 0.5930203 -0.8876398 -0.92963415 0.042117026
-0.23874873 -0.6001919 -0.08900041 -0.14224607 -0.2601436 -0.24853711 -0.008875762 -0.99385387
-0.7008084 -1.0405126 -0.302738 0.0048634377 -0.07647444 -0.001180732 -0.10026141 -0.5057441
0.8406359 -0.84874535 -0.7867297 -0.009806155 0.060866084 -0.35965663 -0.11886754 0.002565287
0.0057586804 -0.25856647 0.0011420421 0.0049510086 1.1503223 1.2625251 -0.014536892 0.27707896
0.01420463 -1.4975963 0.011650556 1.5094887 0.008529634 0.048716925 -0.44561866 0.03152636
-0.70141727 -0.2780998 -0.008906751 -0.059944477 -0.095993765 0.012550157 0.028493268 0.30392978
-0.63115656 -0.0049869446 -0.7594364 0.0121291485 0.44101626 -0.573316 -0.7629884 -0.68492115
0.34749344 0.039608773 1.4415238 0.01736527 -0.4928909 -0.11603282 -0.90309405 -0.68421805
0.49052185 -0.78207064 -0.508762 -0.08612694 -0.0077450955 1.0227199 -1.2469157 1.2847018
0.2636305 0.015974753 -0.41572008 1.6472992 -0.88738364 0.04218881 0.025550285 0.057475712
-0.9310643 0.031970803 -0.33847308 0.5821392 -0.08920404 -0.422442 0.041069593 -0.35695314
00000000: 9207 233b 4120 ac3e 7c83 6c3f a243 c53e
00000010: ee2d 633c e71a 563c 6b10 8ebf b115 c9be
00000020: 27f8 ba3c 7ee1 b83b 7469 25be 8ddd 1e3d
00000030: ac03 f7bd e536 523d 1f4f 71bd b27a 543f
00000040: 4001 3d3e 36d1 a7be 8166 b2bf 4863 12bf
00000050: e141 01bf 4fe5 86bf c345 14bf 30b3 cd3f
00000060: 962f a0be 5678 113b 95d3 2f3d 1075 d43e
00000070: fc26 05be 3095 f9ba 420e 35be 74ab 803d
00000080: 2cb8 f438 1b14 843e e086 2c3c ff81 3dbf
00000090: 9c32 1bbb 32eb b93a 8a18 e3bd 06a7 0fbf
000000a0: 7140 a8be 508e 00bc aec8 00bf 0d94 bfbd
000000b0: 6fe4 3838 ec5a c7be b98a a53f 7591 8dbe
000000c0: 038b 443d 8d63 2ebf b527 143d 7bb4 eebe
000000d0: a6f0 863d 7d2d bbbe 36f6 dcbe f3a2 463e
000000e0: 0ea6 b9bd 0451 60bf 3168 e23c 3f2d 02bf
000000f0: 1a09 843c 985a 19be a6b5 563d 2ff3 a03c
00000100: 7aff 9db9 06c4 683c ec76 e5bd a413 81be
00000110: ddd8 67bf 95f8 62bf 8a4a 96be ece8 e4bd
00000120: a34e e7bd e3c5 67be 3de3 303d 66e7 2ebf
00000130: 5fe1 903b 5b53 85be 6b11 04be dd56 8fbf
00000140: 71cb 3b3c fb01 23be 7270 623d 516d 98be
00000150: 7820 baba 15dc 9bbe 7db5 2bba abe8 043d
00000160: 3e40 1abf 8e96 1cbc b9d8 8a3f 6429 99be
00000170: ab5f 9f3f 0ddc 0f3d 46c9 1cbe ebd9 f5be
00000180: 06be 14bf c892 04be c06b 843f 85b6 133d
00000190: e649 bc3b fefb a7bf f42d bdbe 08ba bcbe
000001a0: 8e5f 1ebf e470 96be a19b 9fbf 1cd8 8bbf
000001b0: 2ed0 173f 5d3c 63bf 81fc 6dbf e782 2c3d
000001c0: 8c7a 74be 2da6 19bf d945 b6bd f4a8 11be
000001d0: 8b31 85be 8380 7ebe a56b 11bc 356d 7ebf
000001e0: 2e68 33bf 842f 85bf 7a00 9bbe 795d 9f3b
000001f0: a29e 9cbd cbc2 9aba db55 cdbd 7278 01bf
00000200: ea33 573f 6047 59bf 1e67 49bf ffa9 20bc
00000210: b74e 793d ea24 b8be d370 f3bd 601e 283b
00000220: 50b3 bc3b d362 84be 93b0 953a 123c a23b
00000230: c33d 933f 6c9a a13f 252c 6ebc 4bdd 8d3e
00000240: 89ba 683c 3cb1 bfbf f9e1 3e3c ed36 c13f
00000250: e1bf 0b3c 668b 473d 2128 e4be c921 013d
00000260: 1590 33bf 1963 8ebe 9fed 11bc 5788 75bd
00000270: 6198 c4bd 2c9f 4d3c b76a e93c af9c 9b3e
00000280: 7a93 21bf 8669 a3bb 6d6a 42bf 56b9 463c
00000290: e2cc e13e d6c4 12bf 3553 43bf fe56 2fbf
000002a0: a9ea b13e cf3c 223d da83 b83f 9c41 8e3c
000002b0: 325c fcbe 9da2 edbd 2c31 67bf ea28 2fbf
000002c0: ae25 fb3e c835 48bf 3a3e 02bf 5263 b0bd
000002d0: 92ca fdbb 7ce8 823f ef9a 9fbf 1c71 a43f
000002e0: 94fa 863e 7cdd 823c 43d9 d4be b3da d23f
000002f0: 932b 63bf 2cce 2c3d d54e d13c a76b 6b3d
00000300: 3b5a 6ebf d1f3 023d 584c adbe 1307 153f
00000310: 9cb0 b6bd 514a d8be 9738 283d 90c2 b6be
