lab2/problem3/neural-network-3-critic.pth (torch, 338911 bytes, 5 tensors)

weight f4 [400, 8]
000000 0a 8a e5 3e 70 19 e9 3e 21 ec 02 3b 29 af 30 3f
       0.44831878 0.4552722 0.001997717 0.69017273
000010 62 8c 9a be 09 d9 c4 3c cb a2 2c bf 8c ca e5 3d
       -0.3018523 0.024029272 -0.674359 0.112202734
000020 80 0b 7b be 22 2c 30 bc 72 79 d2 3e 9b ad 73 3e
       -0.24516106 -0.01075271 0.4110828 0.23796694
000030 a8 f0 b0 3e db c0 d4 bd 48 e2 82 3d ce 02 4d 3f
       0.34558606 -0.10388347 0.06390816 0.80082405
000040 e8 1a f3 3e a8 c4 f4 be 70 97 f6 3e d5 64 06 bf
       0.47481465 -0.47806287 0.48162413 -0.5249761
000050 d8 de c3 be f4 c2 8a be dc 31 f0 bd 63 f4 a4 bf
       -0.38255954 -0.27101862 -0.1172826 -1.2887081
000060 ad e0 f5 3e 9d 67 54 bd 56 62 84 bb e9 01 0e 3f
       0.48022977 -0.051856626 -0.004040043 0.55471665
000070 23 62 8f be a1 2f 73 3c b4 e6 b5 be bf a8 d0 3c
       -0.2800456 0.014842899 -0.35527575 0.02547109
000080 02 f7 8f 3e de d5 ca bd d3 02 67 3d 75 e2 ba 3e
       0.2811814 -0.09904073 0.056399178 0.36500898
000090 62 8e f6 be 5d 96 7e be 31 51 b0 bd ab 85 03 bf
       -0.48155504 -0.24862047 -0.08609236 -0.51375836
0000a0 b3 d8 6b 3d fe 9a c3 bd e4 7b fb 3b 98 1f 30 be
       0.057579707 -0.09551047 0.007674681 -0.17199552
0000b0 a1 33 56 3e 21 9a 76 3d 11 b6 cb be d3 01 a1 be
       0.20918132 0.060205583 -0.39787343 -0.31446704
0000c0 1f 35 56 bf b1 38 67 be 30 c3 7b be 38 a1 f2 be
       -0.83674806 -0.2258022 -0.24586177 -0.47388625
0000d0 13 a8 5d 3e 97 33 29 3d 5b 52 28 be d3 ba e4 be
       0.21646146 0.041308966 -0.16437666 -0.44673786
0000e0 9c 48 9b be a3 f2 0b 3e 49 79 b3 3c f0 8d b4 3c
       -0.30328834 0.13666777 0.02190842 0.022040337
0000f0 b3 94 4a bf 98 9a 04 3e 96 c3 c2 bd 15 6b 09 be
       -0.79133147 0.12949598 -0.09509961 -0.13419755
000100 38 7f 46 3d b2 32 cd be 7f 0f a7 3d b0 36 93 3e
       0.04846117 -0.4007774 0.081572525 0.2875266
000110 1a e8 fd be 01 a7 20 bf 00 81 70 3c 20 9a 97 bd
       -0.49591142 -0.6275483 0.0146791935 -0.07402444
000120 ce 36 b8 be d5 b3 f5 be 44 e3 39 3f 54 2e 4f 3f
       -0.35979313 -0.47988763 0.72612405 0.80930066
000130 ec 59 c3 3e ad f6 91 be 9e d8 97 3e 25 91 b2 3e
       0.38154542 -0.2850851 0.29657453 0.3487636
000140 97 c7 8b bb a3 94 1f bf 58 66 61 3e 19 7b 0c 3d
       -0.0042657363 -0.62336177 0.22011697 0.034297083
000150 66 19 ce 3e 90 42 0b 3e 5a f6 90 be c2 e1 fd 3e
       0.40253752 0.1359961 -0.2831295 0.49586302
000160 26 85 9d 3e 22 2e b1 3e cd df dc be e9 e0 1d bf
       0.30765647 0.3460551 -0.43139496 -0.6167131
000170 3d f2 f8 be c4 0a 04 bf b8 5a 04 bf 11 53 d2 be
       -0.48622313 -0.5157893 -0.51700926 -0.41079
000180 aa 9f d1 3e 6c e1 f6 bd 00 fa 1a 3e 21 ff 12 3d
       0.40942127 -0.120547146 0.1513443 0.03588784
000190 37 ca 9c 3d 1c 89 c5 3d 83 f0 a8 be b0 4c e0 3d
       0.07655757 0.09645292 -0.32995996 0.10952127
0001a0 4b dd 4c bf c3 96 d0 be 9c fc a8 be e6 f9 aa be
       -0.80025166 -0.40740022 -0.33005226 -0.33393782
0001b0 fd f8 5e 3e f0 27 35 3e ae 42 50 bc c3 38 7a 3e
       0.21774669 0.17691016 -0.01271121 0.24435715
0001c0 c4 59 63 3e e9 b3 0f be a3 c9 bc 3d 53 78 70 3d
       0.22202212 -0.14033474 0.09218147 0.0587085
0001d0 1d 74 0b 3e 3b df 44 be ac 9d cc be 7d 6d 65 be
       0.13618512 -0.1922578 -0.39964044 -0.22405048
0001e0 cb 70 75 3d aa 9e 9c bd 80 be a9 be b9 f4 cb 3d
       0.05992202 -0.0764745 -0.33153152 0.099587865
0001f0 64 5c a5 bf 9b 6c cf 3e f3 67 7b bf 86 68 18 3c
       -1.291882 0.40512547 -0.9820549 0.009302264
000200 2a 58 42 3e 5b 78 b0 be 60 33 b3 3e a0 d2 57 3e
       0.18978944 -0.34466824 0.35000134 0.21076441
000210 35 b7 1a bf 0f 33 53 bf e3 6e 5b 3c 2f 15 0a bc
       -0.604358 -0.82499784 0.013393137 -0.008427902
000220 77 cc ee 3e cf 70 2b be 63 43 eb 3e 40 41 a2 3e
       0.4664037 -0.16742252 0.4594985 0.31690407
000230 e4 48 69 bf 6f 06 59 bf 91 13 bd bd 36 75 03 3e
       -0.9112685 -0.8477544 -0.092322476 0.12837681
000240 be c1 0a be 9f 0d 0f bf 04 59 85 3d 04 8b 0c be
       -0.1355047 -0.5588016 0.06511119 -0.13724905
000250 03 ce 3a be 37 ce 36 be 3e 2e c4 bd 1e 2d d1 be
       -0.1824265 -0.17852102 -0.095791325 -0.40854734
000260 8b d3 5b bf 9f c6 8c be b2 39 c1 be 58 af 5a be
       -0.85869664 -0.27495286 -0.3773933 -0.21355951
000270 d0 2d 41 3e 99 30 09 3b 8c cd e0 3c 5e 46 63 be
       0.18865132 0.0020933507 0.027441762 -0.22194812
000280 3c 15 94 be 5f 4e 9e 3d d1 c6 d1 3c a4 ea 3f 3e
       -0.2892245 0.07729792 0.025607498 0.18741852
000290 69 6f 26 3e 26 cc 35 bd 6a d6 f1 bc 0d d7 67 be
       0.16253437 -0.044384144 -0.029521186 -0.22640629
0002a0 98 60 85 be 0f 48 09 bd db d4 c5 be d3 d2 89 3d
       -0.26050258 -0.033515986 -0.38638958 0.06729665
0002b0 7d 22 be 3e d8 b0 bc 3d 53 85 92 bd 14 00 9c be
       0.37135687 0.09213418 -0.07154336 -0.3046881
0002c0 d5 df c7 be f4 2a 18 bf 38 60 ff 3e 7b 07 16 3f
       -0.39037958 -0.5944054 0.49878097 0.58605164
0002d0 67 1b f6 3e af a8 1b bf 4e 54 7d be f5 02 5f 3f
       0.4806778 -0.60804266 -0.24739191 0.8711389
0002e0 ec 20 bd 3d a0 f6 a0 3c ba d8 4f bf ce 38 b5 bd
       0.09234795 0.01964885 -0.81190073 -0.08848725
0002f0 9f a5 b6 bf 3f 74 16 3f 56 cd 8a be 70 16 fa bc
       -1.4269294 0.5877113 -0.27109784 -0.030528277
000300 65 dd d8 3d 8c c4 21 bf 79 db 32 3e 5a 8d b1 be
       0.10589103 -0.6319053 0.17466535 -0.34678155
000310 85 a8 23 be 36 7a a1 3e 74 21 b5 be a1 a8 4f be
       -0.15982254 0.31538552 -0.35377085 -0.2027917
000320 15 79 77 3e f9 15 ce 3e d7 e9 8e ba ca 7f a0 3f
       0.24167283 0.4025114 -0.001090343 1.2538998
000330 b2 8c f6 bd e2 fc 40 3c a7 ce af be 59 fd e1 bd
       -0.12038554 0.011779042 -0.3433735 -0.1103465
000340 81 81 4a be fd 7a 40 3e 1b 40 cd 3e a7 db 90 be
       -0.19775964 0.18796916 0.4008797 -0.2829258
000350 5f de 22 3f 47 4d 91 3c de 72 1c bf 88 7b d6 3e
       0.6362056 0.017737044 -0.61112773 0.41891122
000360 f1 32 8e bd ff c8 e7 be af f8 05 bf 8b aa 17 3f
       -0.0694331 -0.45270535 -0.52332586 0.592446
000370 5c b2 65 bd 77 13 dc 3c 65 66 92 3e 8d b9 c7 be
       -0.0560783 0.02686475 0.28593746 -0.39008752
000380 c1 99 e4 be 0c 46 fe be 53 0b b8 bd 78 cc 44 bf
       -0.44648555 -0.49662817 -0.08986535 -0.76874495
000390 bd 67 e0 bb f1 0b c9 bd 17 5e 0d 3e 77 a1 3f be
       -0.006848304 -0.09816731 0.13805424 -0.18713938
0003a0 61 25 e1 3e 47 a4 94 3d 75 51 34 3e b9 e3 3e 3f
       0.4397383 0.07257896 0.17609198 0.7456623
0003b0 1f dc 09 bf 6a 17 b6 be 98 19 06 ba 2a b2 e4 be
       -0.53851503 -0.3556474 -0.0005115508 -0.44667178
0003c0 ea 0f ae be 49 da 15 be 08 b2 91 3e 3b df d8 3e
       -0.33996516 -0.1463405 0.2845614 0.4235781
0003d0 b0 4d 5d be 5e e4 08 be ad 1a f9 be 70 47 09 be
       -0.21611667 -0.13368365 -0.48653165 -0.13406157
0003e0 34 61 9f 3c 9d a5 f8 3d 08 db 86 be 9d e0 6e bc
       0.01945553 0.12140963 -0.26338983 -0.014579919
0003f0 c3 e9 7b bf 81 93 15 3f dc da 50 bf 25 1e 97 3e
       -0.9840357 0.584282 -0.8158395 0.29515186

bias f4 [400]
000000 af 88 ee bd 25 4a bc 3d 8b 77 da bd 8d b9 03 be
       -0.11647164 0.091938294 -0.10667332 -0.12863751
000010 6b 8d 46 be dc 69 42 be d2 3c a7 bd 2f 9e 9e be
       -0.19389884 -0.18985695 -0.081658974 -0.3098006
000020 d4 00 40 be 95 c5 79 3e 05 bf b8 3e 7c 59 ea bd
       -0.18750316 0.24391778 0.36083236 -0.11442849
000030 66 c7 cc be 1a 31 b8 ba 3d fe 51 be 30 37 eb 3b
       -0.3999588 -0.0014052719 -0.2050714 0.0071782097
000040 e8 51 5b be 77 0f b6 be 7d c7 12 be 97 96 4b bd
       -0.21417964 -0.35558674 -0.14333911 -0.04970416
000050 b7 60 b9 be 55 15 a8 be 7a 5f 1e 3e 02 81 47 bd
       -0.362066 -0.32828775 0.15466109 -0.048707016
000060 a0 7b 01 3e 3b ac 91 3d f3 fe 3c bd 1a 0a 0f bf
       0.12644815 0.071129285 -0.046141576 -0.5587479
000070 19 d5 a3 bd 96 ac 87 be 30 bb 6f be 89 58 51 be
       -0.079996295 -0.2649886 -0.2341125 -0.2044393
000080 85 0d 9c be 8d 4a 95 be 65 70 93 bd 43 27 1f be
       -0.30479065 -0.2915844 -0.07199172 -0.15542321
000090 23 69 2a be f3 eb d5 be 7b a6 66 be 38 0b 7a be
       -0.16641669 -0.41781577 -0.22524445 -0.24418342
0000a0 d9 ca 28 be 4f 15 cb bd 41 74 48 be 41 3f 62 be
       -0.1648363 -0.09916174 -0.19575597 -0.22094442
0000b0 d2 d3 13 be 06 33 64 bd ac 55 c9 bd b5 5e 81 3e
       -0.14436272 -0.055712722 -0.09830794 0.25267568
0000c0 36 24 59 be fc 60 97 be 06 cc ef 3b 41 f1 f5 bd
       -0.2120522 -0.2956618 0.0073180227 -0.12008906
0000d0 46 ef d6 bd 1f 8a 95 bd 19 ae b9 3e 34 a9 8b bd
       -0.104948565 -0.07301735 0.36265638 -0.06819382
0000e0 10 4c 96 be bc 71 2b be ca ab 16 be e3 ae 97 be
       -0.29354906 -0.16742605 -0.1471397 -0.29625615
0000f0 de 60 78 be af e4 7c bd 85 ba 8c be ff 49 e9 bc
       -0.24255702 -0.061741527 -0.27486053 -0.028477667
000100 c6 5f cf be 77 70 83 be 73 cc 22 bd 86 7d a9 be
       -0.40502757 -0.2567174 -0.03974576 -0.3310358
000110 d3 7a 10 be 56 55 9b bc 07 af b5 be 5c eb 5b bd
       -0.14109354 -0.01896159 -0.35485098 -0.053691253
000120 2a 89 f9 be 91 81 f2 bd c9 b2 c8 bd 40 de 4e be
       -0.4873746 -0.11841119 -0.097997256 -0.20201969
000130 78 67 86 be 96 20 98 be 43 ee 8b be e5 e2 10 be
       -0.26250815 -0.2971236 -0.27330217 -0.14149053
000140 63 c9 8a be b0 41 13 bb c5 1e 49 3c ae 6f a0 bd
       -0.2710677 -0.0022469573 0.012275402 -0.07833801
000150 f1 56 d9 be e7 0c 43 be e8 50 c7 be 13 6e 0c bf
       -0.42449144 -0.1904789 -0.38928914 -0.5485546
000160 a2 6e f1 bd 04 11 27 be f6 67 5d bc 71 42 57 be
       -0.1178868 -0.16315085 -0.013513556 -0.21021439
000170 68 0d bb be 68 57 3c be b4 48 a4 bd ed fb 38 be
       -0.36533666 -0.18392718 -0.080216795 -0.18064852
000180 e4 60 3a be 23 d7 d3 bd eb d1 b5 be e2 c6 8b bd
       -0.18201023 -0.103437684 -0.35511717 -0.06825043
000190 d4 12 99 be 6c 13 9c bd 63 be fc bd f2 47 86 be
       -0.29897177 -0.07620892 -0.12341001 -0.26226765
0001a0 fc 50 e5 3c e0 c5 7f bd 06 3e b8 be 34 80 b6 bd
       0.027992718 -0.062444568 -0.3598482 -0.089111716
0001b0 97 c6 b3 be 63 66 55 3e f1 6a 8d be a0 e2 7b be
       -0.3511245 0.20839839 -0.27620652 -0.2459817
0001c0 b0 ac ed bd 2d c5 83 be 80 48 2a be 1e 06 98 bd
       -0.11605203 -0.2573637 -0.16629219 -0.07423042
0001d0 57 05 cd 3d 2b a5 45 be 8f 5d 93 be 90 98 97 be
       0.10010784 -0.19301288 -0.28782317 -0.29608583
0001e0 39 b4 e7 3d 72 ea 62 3b c4 42 54 be 64 0e 66 bd
       0.113136716 0.0034624604 -0.20728594 -0.056166068
0001f0 55 6f 86 be 22 e8 06 be aa dc c6 bd e4 db 13 be
       -0.26256815 -0.13174489 -0.09710057 -0.1443935
000200 8b 14 d3 bd b4 5b f0 bd f8 44 66 be f9 41 4d 3e
       -0.10306653 -0.11736241 -0.22487247 0.20044698
000210 4e 9b 84 bc 1d 8c 86 be fc f8 7a be 41 97 a4 be
       -0.016187336 -0.26278773 -0.24509043 -0.32146648
000220 d2 1a fe bd ee bf eb be c1 6a 3c be 8a f6 7c be
       -0.12407459 -0.46044868 -0.18400098 -0.24703422
000230 7e ab cc bd 80 74 20 be b9 ff e9 bb 16 2b 5e bc
       -0.09993647 -0.15669441 -0.00714108 -0.013560077
000240 dd c4 d8 be 09 59 0c bd 01 fe 8f be 2c 87 08 be
       -0.42337695 -0.034264598 -0.28123477 -0.13332814
000250 7b 73 33 be e7 1e f8 bd a9 2e e3 3b e9 db a7 be
       -0.17524521 -0.12115269 0.0069330526 -0.32784966
000260 e1 3a cb bd 6b cd ab be 7f ad 63 bd ee 50 9b be
       -0.0992334 -0.3355516 -0.05558538 -0.30335182
000270 8c 31 c0 be 35 0f 90 3e b0 6a 92 bd 9c f3 84 bd
       -0.375378 0.28136602 -0.07149255 -0.06491777
000280 10 01 c5 bd 3b 79 52 be 6d 76 90 be 73 73 3e 3c
       -0.09619343 -0.20554058 -0.28215352 0.011624205
000290 ef 51 c7 be 9d 6d 09 bf b1 9c c0 be 5f a0 89 3e
       -0.38929698 -0.5368288 -0.37619546 0.26880166
0002a0 db e9 a4 be 3b 6e 81 be 5a 5d 3f be 09 3e 8c 3e
       -0.32209668 -0.25279412 -0.18687955 0.2739108
0002b0 7d 4e 3f be b2 f2 68 be 3f c6 9d bd 6a f1 a6 3d
       -0.18682285 -0.22748831 -0.07703828 0.08151515
0002c0 0d 0a 39 bc cf 65 fd be b2 ac a0 3e 78 8a 02 3e
       -0.0112939 -0.49491736 0.31381756 0.12748134
0002d0 5b af 9c be 94 3b bf be 66 41 ee be 66 fb 28 be
       -0.30602536 -0.37350142 -0.4653427 -0.16502151
0002e0 40 36 b4 bd a7 d6 31 be e8 78 04 be 8a d1 42 3e
       -0.0879941 -0.1736704 -0.12936747 0.19025245
0002f0 ef c8 3d bd 05 66 a8 bd a6 f9 47 3d 0a e2 2e be
       -0.046334203 -0.08222584 0.048822068 -0.17078415
000300 6c 47 5c be 53 1c d1 bd cc 03 8e be fb fe af be
       -0.2151162 -0.102104805 -0.27737272 -0.34374222
000310 d9 7d 05 be 0c 91 26 be 63 9a e2 bd 6f 54 a4 be
       -0.13036288 -0.16266268 -0.11064603 -0.32095668
000320 be c5 61 be 89 b3 ec bd c6 7e 68 be 91 23 f3 bd
       -0.22048089 -0.11557681 -0.2270461 -0.11872018
000330 d7 e5 0a 3f df ce 1b be fa a6 9a 3e 76 19 dc be
       0.5425696 -0.15215634 0.30205518 -0.42988175
000340 90 46 6a be 20 f8 9f bd fe e6 03 be 73 c7 db bc
       -0.2287848 -0.07810998 -0.12881085 -0.026828503
000350 ff 65 93 be be 84 13 be 39 9c 5f be 69 85 81 be
       -0.28788754 -0.14406106 -0.21836938 -0.25297096
000360 72 a8 28 be 63 37 84 be 29 95 26 be 62 a0 3c be
       -0.16470507 -0.25823507 -0.16267838 -0.18420556
000370 5a 2f b4 be bf ab 89 be a7 f4 a8 3e b6 6d 69 be
       -0.35192376 -0.26888844 0.32999155 -0.22795758
000380 ca 66 9a be d8 16 18 be ea e2 f2 bd fd c5 0a be
       -0.30156547 -0.14852464 -0.11859687 -0.13552089
000390 09 8e ea be d2 91 af be 88 cd 96 be ea 2a 89 be
       -0.4581149 -0.3429094 -0.29453683 -0.26790553
0003a0 96 d4 68 be df 24 a2 be 4f 79 8f be 07 d9 88 be
       -0.22737345 -0.31668755 -0.2802224 -0.2672808
0003b0 24 c4 87 be 9e e9 8d be d6 d5 56 be 3e c4 d7 be
       -0.2651683 -0.27717298 -0.2098001 -0.42141908
0003c0 cf 45 fc bd 24 bf d7 bd b4 7a 75 be b4 64 2b be
       -0.123180024 -0.10534504 -0.23972589 -0.16737634
0003d0 f5 88 55 bd 18 98 e7 3c 68 c5 08 be 79 dd 93 be
       -0.052132566 0.028270766 -0.13356555 -0.28879908
0003e0 b5 1a ea be ee 65 ac bd 0b 55 fa 3c e1 f0 24 3e
       -0.457235 -0.08417879 0.03055813 0.16107513
0003f0 ff c7 5e be 7b 21 b6 be 1c ca 7f 3d 9e 5f d8 be
       -0.2175598 -0.3557242 0.062448606 -0.4226045

weight f4 [200, 400]
000000 a0 70 bf 3d 05 98 36 bd 8d b9 7d 3e 64 99 d1 bb
       0.093476534 -0.04457857 0.24777813 -0.0063964594
000010 7b d7 fb 3d e4 8c a8 3d 38 80 71 3e 70 86 40 3e
       0.12296959 0.08229998 0.23584068 0.18801284
000020 9d fb 6d 3e 88 88 5f be 99 bc ce bd 88 bb 5a bd
       0.23240514 -0.21829426 -0.10094566 -0.0534015
000030 14 b6 30 3d ff 47 3a 3d 05 29 1f 3d 0b 3f 55 be
       0.043142393 0.045478817 0.03885748 -0.2082483
000040 e6 6d 44 3e 4e e2 89 3e 5c e9 00 3c 00 78 10 3e
       0.19182548 0.2693047 0.007868137 0.14108276
000050 77 3b 61 3d 9a d9 81 3d f4 71 05 bf 13 5a 41 be
       0.05498835 0.06340332 -0.52127004 -0.18882017
000060 a3 75 c7 bc 33 62 46 bd 1d c8 f3 bc 6e 29 25 3e
       -0.024348086 -0.048433494 -0.029758507 0.16129085
000070 2f 64 51 3e 24 31 92 3e 07 ee 09 3e b0 e0 d5 bd
       0.20448373 0.28553116 0.13469706 -0.10443246
000080 60 20 cd 3d 65 98 9f 3d 0b f4 bf 3d 98 cd 4d bd
       0.10015941 0.07792739 0.093727194 -0.050244898
000090 17 07 d4 3c 69 a7 86 3c 75 ec c4 3d 5d 9c 61 3e
       0.025882287 0.01643725 0.09615413 0.22032304
0000a0 4b 84 d8 bd ad d0 56 3e 20 db 9d 3e 1a b8 35 3e
       -0.10572108 0.20978041 0.30831242 0.1774601
0000b0 e9 e4 3d be 14 fc 80 3d fe 0e 06 be f1 1e 06 be
       -0.18544354 0.0629808 -0.13091657 -0.1309774
0000c0 2f d6 81 3e a2 6e 74 3d 74 05 38 3e 22 74 01 3d
       0.25358722 0.05967582 0.1797083 0.031604894
0000d0 6b 9a 13 3e bf 08 f3 3d 1d 65 72 bd 94 bb 1c be
       0.14414375 0.118669026 -0.05917846 -0.1530593
0000e0 57 9a 40 bd bd 74 04 be ab c6 17 3d 81 3a ac 3d
       -0.04702219 -0.12935157 0.0370547 0.08409596
0000f0 88 76 a7 3e 4d f8 00 3e b6 a9 bf bc 14 d4 97 bb
       0.3270762 0.12594719 -0.023396354 -0.004633436
000100 c7 81 a3 bc cd 0a c1 bc 5c 89 0d 3d b9 2e 98 3d
       -0.019959344 -0.02356472 0.034554824 0.07430787
000110 1d 23 8b bd 48 6d c3 bd 86 2d 1a 3d c5 4a f7 bd
       -0.06793807 -0.09542328 0.03764107 -0.12074808
000120 2b 98 62 be 66 a1 66 bc c8 46 65 3b 37 8e 15 3c
       -0.2212836 -0.014076566 0.0034984816 0.009128145
000130 77 ae 17 bd ee f6 f7 3d 49 a7 31 3d 07 d2 d0 3b
       -0.037031617 0.12107645 0.043372426 0.0063726935
000140 99 90 39 bd dd f3 d7 be 1a a7 12 be ad 7b 84 3e
       -0.045303915 -0.4217824 -0.14321557 0.25875607
000150 b6 66 a8 3d d2 58 24 3d 52 9b 95 3d 24 43 3b be
       0.082227156 0.04012377 0.073050156 -0.18287331
000160 42 80 c0 bd a8 b8 16 3e e3 79 e4 bc 87 e4 0a 3d
       -0.09399463 0.14718878 -0.027890151 0.033909347
000170 96 81 36 bc d2 72 80 3e 0a e9 89 3d 32 33 a3 bd
       -0.011139294 0.250876 0.06733902 -0.07968749
000180 71 ce 02 3e 11 66 26 be f5 7c a3 be fa 32 97 bd
       0.12774064 -0.16249873 -0.31931272 -0.0738277
000190 01 8d 12 3e e8 96 83 3e 06 b6 88 3e e3 e0 74 bd
       0.14311601 0.2570107 0.26701373 -0.05978478
0001a0 38 ae a7 3c e1 dd 63 3d 74 3f 12 3e 42 e1 ef 3d
       0.020468816 0.055631522 0.14282018 0.117128864
0001b0 a5 03 4f 3d c4 63 80 be d1 eb 66 3d 9d 97 f4 3d
       0.050540585 -0.25076115 0.056377236 0.119429804
0001c0 0e b4 02 bc 05 e7 e0 3d 1b ee 76 3e 77 41 55 3d
       -0.007977499 0.109815635 0.24114268 0.052064385
0001d0 19 78 e2 3c bb 0e 2f 3e 4d 03 98 3a e9 f9 9c 3d
       0.027645158 0.17095463 0.0011597663 0.07664854
0001e0 ef e0 3a 3e 3c c5 25 3d 07 c6 82 3d 16 04 93 3e
       0.18249868 0.0404713 0.06385427 0.28714055
0001f0 cc d6 50 3d 35 19 4e bc 8b 45 b5 be 6b d2 d1 bd
       0.050986096 -0.012579252 -0.3540462 -0.10245212
000200 ba 1b 59 3e 0b 67 a6 bd 40 89 37 3d 4b cd a5 bd
       0.21201983 -0.08125123 0.044808626 -0.08095797
000210 b0 4f 8c 3d 8e 03 1c 3d 18 37 13 3e cd 71 2b 3d
       0.06851137 0.038089328 0.14376485 0.041856576
000220 7d d4 51 bd 57 9b 9d 3e 8f a6 63 3e a0 20 15 3e
       -0.051228035 0.30782577 0.22231506 0.14563227
000230 ce 97 2a 3e 57 93 a5 3d 85 73 fb be 53 e9 0d 3e
       0.16659471 0.080847435 -0.49111572 0.13858537
000240 6e bf 02 bd e3 a2 8a 3c c7 67 d9 be c5 73 91 3e
       -0.031920843 0.016923374 -0.42461988 0.28408638
000250 43 a8 82 be f0 fb 20 bd f8 a2 21 bd 3a e9 72 3e
       -0.25518999 -0.039302766 -0.03946206 0.23721781
000260 87 ed 6d 3e da 6b 6f 3e 4f 1d a4 3e bf 80 eb 3d
       0.2323514 0.23380986 0.3205361 0.11499166
000270 0b 9a 40 3e 88 c0 7c 3c 7e ce 92 bd 76 ad 8c 3e
       0.18808763 0.015426762 -0.071682915 0.2747609
000280 fa 29 18 3d f2 f7 fe 3d 94 a6 4c 3d 6e 74 08 bd
       0.037149407 0.124496356 0.04996355 -0.03331416
000290 b5 cc e3 3d 50 cd 82 3d af a9 c3 3d c6 08 25 3e
       0.11123029 0.063868165 0.09553849 0.16116628
0002a0 31 ad e8 3d 09 e6 73 be fd 87 c5 bb 1d d0 ff bd
       0.11361159 -0.2381822 -0.006028174 -0.12490866
0002b0 00 ad 1a 3d be 08 a7 bd 9d d6 86 3d b0 fe 41 3d
       0.037762642 -0.08155964 0.06583903 0.04736203
0002c0 96 88 87 bc c9 1f a9 3d 09 5e c5 bd 0c 75 ff be
       -0.016544621 0.08258016 -0.096370764 -0.49893987
0002d0 97 6c 16 3e 67 80 9d be fa b9 49 3e db 0e 9d 3d
       0.14689861 -0.30762026 0.1969985 0.07668849
0002e0 28 f7 76 3d 51 12 88 3e c5 dd a9 bd d0 7a ec 3a
       0.0602943 0.26576474 -0.08294252 0.0018041972
0002f0 8f df 53 3b 7f 67 82 3e 66 8d 3e be 48 62 81 3e
       0.0032329296 0.25469586 -0.18608627 0.25270295
000300 d0 88 43 3c dd ca 40 3d 10 3f b0 3e 86 d8 6f 3b
       0.011934474 0.047068466 0.34423113 0.0036597564
000310 5b 14 8f 3d a8 7a 78 3c 99 56 0f 3d da 79 9b be
       0.069863044 0.015165962 0.034994695 -0.30366403
000320 cd c2 be be 72 2c b9 3e c7 3c 4b be a5 2c 18 3d
       -0.37257996 0.36166722 -0.19847403 0.03715195
000330 b4 bf 17 bd e4 2a 8c 3e 94 93 c7 bd 1f b3 f7 bd
       -0.037048057 0.27376473 -0.09744945 -0.120947115
000340 fa fd 36 3d f6 16 c1 3b 32 8c 8f 3d e6 92 83 3d
       0.044675805 0.0058926297 0.07009162 0.06424503
000350 35 8f 82 3e c9 3a 27 3e 65 9c 57 3d 2c 0b 6c bb
       0.25499883 0.16331019 0.052639384 -0.00360174
000360 21 f4 6b 3d 64 5b 6b 3e 95 d2 d4 3d e0 46 6e bc
       0.057605866 0.22984082 0.10391728 -0.014543265
000370 f5 ef 86 3d 0b 93 25 be 41 c9 27 be 5d 71 84 be
       0.06588737 -0.16169374 -0.16385366 -0.2586774
000380 9f ae 16 3e e6 ac 09 3e ef fb 2e 3e 82 a5 c2 be
       0.1471505 0.13444862 0.17088293 -0.38016897
000390 08 29 26 3e db 08 29 3e fc a6 7b 3d fb df b7 3c
       0.1622659 0.16507284 0.061438546 0.02244567
0003a0 b9 3c 93 3d d0 80 90 3e 97 38 84 3e a0 28 01 3c
       0.07189316 0.28223276 0.25824425 0.007883221
0003b0 2c b5 47 3e 32 25 c2 be ff 13 97 bc 7c cc 4d 3e
       0.19502705 -0.37919003 -0.018442152 0.20097536
0003c0 55 6b 0f bc 63 c0 f9 3d c1 b0 4c 3e af 31 d1 3a
       -0.008753617 0.12194898 0.19989301 0.0015960241
0003d0 da 66 9b 3d b1 42 57 3d 88 c5 f1 3d 86 7d 99 bd
       0.07587977 0.052553836 0.11805254 -0.07494645
0003e0 fe 56 98 3d ba 00 be 3d 28 47 5b bd f4 b6 01 3d
       0.074384674 0.09277482 -0.053534657 0.03166862
0003f0 9a 46 43 3e 75 13 23 3d a7 92 1f 3e 25 95 ff 3d
       0.19069901 0.039813478 0.15583287 0.12479619

bias f4 [200]
000000 9b 6b 0a bd 29 3d 0c 3e 9a 0d a9 3e 27 b7 57 bd
       -0.033794027 0.13695206 0.3301819 -0.052664902
000010 2d 77 a6 3e 05 ed ea bd 5a d2 80 bd 60 e8 65 bd
       0.325128 -0.11470989 -0.062901214 -0.056129813
000020 5f 11 81 3d 5b 5f 8e bd fe b8 a5 bb a5 f6 85 3e
       0.063021414 -0.06951781 -0.005057453 0.26164737
000030 ff bf 72 bb dc f1 d1 ba 40 3e 7c 3d d3 14 89 bd
       -0.0037040708 -0.0016017514 0.061582804 -0.06693425
000040 9f 3d b6 3d cb 9e 7e bd 51 aa d9 bd de 8c 72 bd
       0.08898472 -0.062163156 -0.106281884 -0.059216373
000050 4d fd 9c 3d 46 19 32 bd 00 82 0b 3e 21 46 96 3e
       0.07665501 -0.043481134 0.1362381 0.2935038
000060 68 10 43 3d 0b 38 1e be 44 86 1e bd 9e 13 93 3e
       0.047623068 -0.15451066 -0.038702264 0.28725904
000070 e6 1b 33 3e 3a e6 e4 be 6e 73 c2 3d 85 6d c2 3d
       0.17491111 -0.447069 0.09494673 0.094935454
000080 75 1e c2 3c 28 5f 98 bd 40 4d a4 3d e2 76 4d be
       0.023696164 -0.074400246 0.08022547 -0.20064881
000090 9c 16 71 be d9 68 48 3c a0 9b 9e 3e c7 b2 cb 3c
       -0.23543781 0.012232029 0.30978107 0.024865521
0000a0 56 fe 8a bd d1 ed c0 3d f3 e6 36 bd 9f a6 6d 3d
       -0.06786792 0.0942036 -0.044653844 0.05802023
0000b0 9e ec ac 3e b8 17 90 3e 95 e2 54 be d9 99 0d 3e
       0.33774275 0.28143096 -0.20789559 0.1382822
0000c0 83 08 48 bd c0 54 55 bd ef 61 93 3d c7 55 a5 3d
       -0.048836242 -0.052082777 0.07196414 0.08073001
0000d0 34 0d 4d be 26 65 d1 3d 55 10 e2 3d aa 74 7e 3d
       -0.20024568 0.10224371 0.11038271 0.06212298
0000e0 35 93 0c 3d 9a 46 c8 bc 4c a4 b0 bc f8 fa 76 be
       0.034320075 -0.024447728 -0.021562718 -0.24119174
0000f0 e6 77 a2 be cc 79 4a 3c e0 7e 74 bc a6 a5 e0 bc
       -0.317321 0.01235814 -0.0149228275 -0.027422737
000100 0d 43 47 bd 94 30 2e be b4 55 58 be ce aa 07 bd
       -0.04864793 -0.17010719 -0.21126443 -0.033121876
000110 fb 93 df 3e 8e 9b 6f 3d a4 21 f0 bc b0 50 f7 3d
       0.43667588 0.058497958 -0.029312916 0.12075937
000120 6d 6b b5 3c 49 2a 3f be a0 c6 b8 3d a8 df 10 3d
       0.022145951 -0.18668474 0.0902226 0.035369545
000130 d9 bb 00 bc 4e 32 a9 bd ed 1c 0b be a7 bc 93 bd
       -0.007857286 -0.08261548 -0.13585253 -0.07213717
000140 f0 fd 08 3e 9c 1f bc 3d 33 cc 4c 3e 6d 59 8d 3e
       0.1337812 0.091857165 0.19999771 0.2760729
000150 3c 99 64 3d d8 09 4b be 49 bf ea bd 6d a8 7c bd
       0.0558102 -0.19827974 -0.11462266 -0.06168406
000160 ab 96 8c 3d 74 be 3b bd fd 48 0b 3d c6 c4 46 3d
       0.06864675 -0.045835927 0.034005154 0.0485275
000170 79 12 29 be f0 71 a0 3c fc 3b 84 bd 24 1c a0 3d
       -0.16510953 0.01958558 -0.064567536 0.078178674
000180 80 4d da 3d 08 05 0d 3e 8e cb 54 3d d4 a9 aa 3e
       0.10659313 0.1377145 0.051951937 0.33332694
000190 35 4b 24 3e e5 66 ab 3e 62 f5 87 3e 59 e0 c2 bd
       0.16044314 0.3347694 0.265544 -0.09515447
0001a0 4b a1 5e 3d 9d 95 69 bc ce 8a 0f be 2f 78 eb 3d
       0.05435304 -0.014256862 -0.14017794 0.114975326
0001b0 d7 6b b5 3c 7a 90 e1 3d 73 8c 81 3d 7f 42 63 bd
       0.022146149 0.11013885 0.06325617 -0.055483337
0001c0 73 cb 19 be 85 a7 02 3e 3b ec 1e bd 8e f7 3e bd
       -0.15019016 0.12759216 -0.038799506 -0.046622805
0001d0 f5 ad f0 3d 57 60 91 3a df fb c2 3e ab 4f 08 3e
       0.1175193 0.0011091334 0.38082787 0.13311641
0001e0 97 06 44 3d 55 96 9b 3e 6d 4b 21 3d 8c 9c f4 3e
       0.047857847 0.30388132 0.039378572 0.47775686
0001f0 88 37 19 3c 00 90 66 bc 67 b4 bb bd 15 80 1a 3d
       0.009351619 -0.014072418 -0.091652684 0.037719805
000200 21 fe 90 3e 43 1e 63 3e 2a 47 a8 3e 8e 26 cb bc
       0.28318885 0.22179513 0.32866794 -0.024798658
000210 e1 b0 85 bd 4d 39 b1 3e 41 0d 8e bd 50 6d e5 3e
       -0.065278776 0.3461403 -0.06936122 0.4480996
000220 65 9b 9a 3e 6e 2a 5f bd f9 b1 fd bb e1 29 da 3d
       0.30196682 -0.054483823 -0.0077421633 0.10652519
000230 26 1e f9 3d 31 67 9a 3c c9 67 b3 3d 83 3a 10 3e
       0.121639535 0.018848034 0.0876003 0.1408482
000240 b8 c6 f0 be 57 ae f1 bd ca c6 5b bd 20 0b e1 3c
       -0.4702661 -0.11800831 -0.053656377 0.027471125
000250 67 26 ca 3e 50 08 1f be 00 24 5f be 3d b3 b1 3d
       0.39482424 -0.15530515 -0.21791077 0.08676765
000260 8f 8a 86 3d 0b 9e 64 bd 82 e7 95 bb fe 83 d6 bb
       0.06569397 -0.055814784 -0.004574717 -0.0065464964
000270 b9 26 b1 bd 2d 10 19 be 93 f9 a0 3d d1 de 2b be
       -0.08649964 -0.14947577 0.078601025 -0.16784216
000280 b2 37 6c bd 21 93 0a bd 36 28 9f 3e e2 07 ab 3b
       -0.057670303 -0.03383172 0.31085366 0.0052194456
000290 f3 1c 3a 3c 4f aa 81 3d 02 da 0d be 8d ec d3 3d
       0.011359441 0.06331312 -0.13852695 0.10347853
0002a0 49 6f 87 bd 08 05 ea bd e8 c6 c8 3b 12 26 04 be
       -0.06613023 -0.11426741 0.006127227 -0.12905148
0002b0 ec 37 77 bd 99 f4 29 3d e9 45 5b 3d 90 51 4a bd
       -0.060356066 0.041493032 0.05353347 -0.04939419
0002c0 5b a0 c2 3d 6c 29 82 3e a0 4b db 3d ac a9 b0 bd
       0.09503242 0.25422227 0.10707784 -0.08626112
0002d0 65 a0 61 3e e7 1f d7 3e be 9e 49 3f dc 3d 84 3c
       0.22033842 0.42016527 0.78757846 0.016142778
0002e0 2a 3d b6 3e 78 81 e5 3d b2 05 aa 3d f8 18 ac 3d
       0.3559354 0.11206335 0.083018675 0.084032
0002f0 cb e0 f8 3d 19 07 ff 3d 90 d6 6c 3e 77 4d a1 bc
       0.12152251 0.12452526 0.23128724 -0.019690258
000300 08 ed d7 3d eb 5e fb bd 5b 94 40 bc bd 68 9d bc
       0.10543257 -0.122739635 -0.011754121 -0.019214982
000310 f3 ce eb bb 1a 48 c6 3d 1a ff c5 3d 99 d0 b4 3c
       -0.007196301 0.09681721 0.096677974 0.022072123

weight f4 [1, 200]
000000 10 f7 5e bc 19 7f 09 be 86 88 9a 3e ea 07 e6 b9
       -0.013608709 -0.1342739 0.30182284 -0.00043874915
000010 e0 73 c1 3e 3a c0 31 3c ee 82 47 bd 6a 5e 1f 3d
       0.37783718 0.010849053 -0.04870885 0.0389084
000020 ea 7f 18 be 37 80 f4 3c 97 dd 3a bd 3a c8 b4 3e
       -0.14892545 0.029846294 -0.04562148 0.3530901
000030 ed b7 8f bd 3e e6 34 bd 9d 29 ea bd d3 ca f7 3b
       -0.07017503 -0.04416489 -0.11433718 0.0075620203
000040 af d4 e5 bd 02 e3 1b 3e 2c cb 50 be 7f 7a a4 bc
       -0.11222207 0.15223315 -0.20390004 -0.020077942
000050 f9 91 0d be a5 f7 fa bb 5b c4 61 3e 9d 8b 9b 3e
       -0.13825215 -0.007658916 0.2204756 0.30379954
000060 3f aa 0a 3e 4e 9e 7d bb b4 c6 09 bd 42 8c 7e 3e
       0.13541506 -0.0038699093 -0.033636764 0.24858192
000070 c8 66 5b 3e 37 14 b7 bc 5c 5c bf bd fc 6a eb bd
       0.21425927 -0.022348506 -0.09343788 -0.11495015
000080 c5 0b 97 bd b2 08 88 3c a9 eb 0e be 69 24 51 3c
       -0.07375292 0.016605709 -0.13957085 0.0127650285
000090 ab c3 68 bb 6c 64 0e 3e b9 56 b8 3e 17 c7 73 bd
       -0.0035517018 0.13905495 0.36003664 -0.05951604
0000a0 28 b4 0f bd cf 03 be bd 24 c7 0c bd 64 8e b5 bd
       -0.03508392 -0.0927807 -0.034369603 -0.088650495
0000b0 2a dd 9c 3e 61 15 68 3e c1 16 4a 3a 79 3c 20 be
       0.30637485 0.22664405 0.0007709079 -0.15648068
0000c0 9b ef 31 3c 63 ee b1 3d a3 81 c3 bd 22 e5 a1 bd
       0.010860349 0.08688047 -0.095462106 -0.07905032
0000d0 e7 eb 92 3d c1 a1 23 be 23 79 fc bd 7e 4b 9e bd
       0.07173901 -0.15979673 -0.123277925 -0.07729243
0000e0 b7 01 de bd 59 52 84 bd 00 c1 b0 3d bc 73 81 bd
       -0.10840171 -0.06461019 0.08630562 -0.06320903
0000f0 a3 8b 5a bd f4 e7 0f 3e d2 a5 ca 3b 06 64 c8 bc
       -0.053355824 0.14053327 0.006184318 -0.024461757
000100 26 00 65 3d 31 ca d2 bd 98 8f 68 be 96 19 3c bb
       0.055908345 -0.10292471 -0.22711027 -0.0028701774
000110 7d ae ef 3e 57 ad 02 be 30 50 67 3c b3 6f 0d be
       0.46812811 -0.12761436 0.014118239 -0.13812141
000120 25 dc 8c bd d3 13 56 bc eb ff c7 bd 5e 91 9e bd
       -0.06877927 -0.01306625 -0.09765609 -0.0774257
000130 d8 a4 c5 bc 6e 62 6a bc fb 86 a9 bb de 51 69 3c
       -0.024126455 -0.014305694 -0.0051735616 0.01424071
000140 d5 1e 1b be 14 cb 02 be 1e c8 5d 3e 35 15 9b 3e
       -0.1514848 -0.1277278 0.2165837 0.30289617
000150 45 05 b8 bd 8b cb cf bd b9 de 37 3b 21 9e e1 bc
       -0.0898538 -0.101462446 0.0028056337 -0.027541222
000160 57 a7 fc bd bf dd b7 bc 8a 94 80 bd 39 f5 ed bd
       -0.12336605 -0.022444604 -0.062783316 -0.11619038
000170 cb 8c 8c bd b0 bf c4 bd 24 1e 10 3c 76 37 15 be
       -0.06862792 -0.09606874 0.008796249 -0.14571938
000180 65 e1 d7 bd da e7 fc 3d 61 72 ca bd f3 d3 cc 3e
       -0.105410375 0.1234891 -0.09885097 0.40005454
000190 ae 29 49 3e 15 d1 ff 3d b7 14 77 3e 73 2a 00 3e
       0.19644806 0.12491051 0.24128996 0.12516193
0001a0 88 35 ad bd 4c ef 7f bd 41 19 66 3c e0 3b 23 be
       -0.08457476 -0.06248407 0.014044107 -0.15940809
0001b0 62 e5 d4 bd 8b 4b 1e be 19 20 9e bd 56 09 6d bb
       -0.10395314 -0.15458505 -0.07720966 -0.0036168895
0001c0 54 8a 95 3c 48 c3 19 be a7 11 71 3d 21 3d 0c 3d
       0.018254437 -0.150159 0.058854725 0.034237985
0001d0 93 10 2e be df ef 4f bd 8e 34 ea 3e 9f ef 3d 3e
       -0.1699851 -0.05076587 0.4574322 0.1854844
0001e0 f7 79 a9 bd 48 47 81 3e a0 05 9d bd f6 de 16 3f
       -0.08275216 0.25249696 -0.076670885 0.5893396
0001f0 96 cf 1c bd 18 0a a3 bd 70 68 5c bc d6 83 16 be
       -0.038283907 -0.079609096 -0.013452634 -0.14698729
000200 44 cb 95 3e 49 3a 6a 3e 36 5e c4 3e 2b 39 64 bd
       0.29256642 0.22873797 0.38353127 -0.055718582
000210 a4 34 2b 3c bf d2 bf 3e b8 d1 f6 bc a5 15 bd 3e
       0.010449562 0.37465474 -0.030129299 0.36930576
000220 e0 04 97 3e a9 77 b8 3b 71 fa 1f bd a1 87 f7 bd
       0.29495907 0.005629499 -0.0390572 -0.12086416
000230 c2 0e e4 bd b1 62 c4 bd 75 d8 07 be e0 68 5f 3e
       -0.11135627 -0.095891364 -0.13266166 0.2181735
000240 22 6e 81 3d f9 5a 07 bc 4e c4 52 bb 27 a5 cb bd
       0.06319834 -0.008261436 -0.0032160464 -0.0994361
000250 1b 68 c0 3e b4 18 36 bd d3 86 80 bc 18 49 c8 bd
       0.37579426 -0.044457152 -0.01568929 -0.097795665
000260 4b 3d 00 be 28 4c 1c bd 2f 86 48 3d de 50 9e bd
       -0.12523381 -0.038158566 0.048956092 -0.07730268
000270 65 1e 1f 3d bf 2b 0e 3c 7c fc ee bd 68 d4 2f bd
       0.038847346 0.008677422 -0.11669251 -0.042927176
000280 36 bc 96 bb 9f 7e a1 bc 3e 5c b8 3e 08 0e a7 3e
       -0.004600073 -0.019713698 0.36007875 0.32627892
000290 79 ce 84 bd 59 d9 08 be 88 f4 54 3d cd bf e9 bd
       -0.06484694 -0.13364162 0.051991016 -0.11413536
0002a0 b0 61 35 bc 57 b4 50 bc ea 49 5a 3d e3 9f 54 bc
       -0.011070654 -0.012738309 0.053293146 -0.012977573
0002b0 eb f6 26 bd 7b b1 17 be 15 8f 2d bd 4d f7 51 3d
       -0.040762823 -0.14813797 -0.04237278 0.051261235
0002c0 66 52 19 be 25 98 82 3e 7d b0 9d 3b ed de 27 3d
       -0.14972839 0.25506702 0.004812299 0.040984083
0002d0 1f dd a4 3e b0 af dd 3e 4b f8 1c 3f 46 11 8e 3c
       0.32199952 0.432981 0.61316365 0.017342221
0002e0 55 b7 81 3e 09 b8 21 be d3 d4 02 be d8 9c ea bd
       0.25335184 -0.1579286 -0.12776498 -0.11455697
0002f0 69 21 dc bd 36 c2 ea bd b2 58 1b 3e 59 5b bf bc
       -0.1074856 -0.11462824 0.15170553 -0.023358988
000300 dc 5b de bd b3 08 20 3d 7f 42 56 bd b4 89 4e bd
       -0.108573645 0.039070796 -0.05230951 -0.050424293
000310 5f 8c 1c bd 5b 7b 15 be f8 05 1e be f4 f2 86 bd
       -0.038219806 -0.14597838 -0.15431964 -0.065893084
