lab2/problem3/neural-network-3-actor.pth (torch, 663487 bytes, 10 tensors)

weight f4 [400, 8]
00000000: b323 5abc 0364 1abe 35c0 16be 1514 48be
00000010: 195a 8cbe 6dec 3b3e d3c4 3a3d 5947 89bd
00000020: f1a8 65be b66b 72be 8d83 033d 97d4 663e
00000030: b32b 943d b9d6 d93d fc3f a6bd 8939 803d
00000040: db89 6fbe a07f ecbd 0425 7bbd 2284 8a3e
00000050: 6a7e b1be 8195 7db9 f9b4 0ebe 7172 b3be
00000060: ede9 0bbe 7a14 023d 5e2f 1c3d a3e3 443d
00000070: dcdf c83d 4293 a3be fce7 443b fa22 7abe
00000080: 55e6 ecbd 2ca9 693e abce 72bd 75b1 adbd
00000090: 2ea4 ba3e 0289 c7bd 6f70 89be 37ea 19bd
000000a0: 95b0 b2be 2d40 933c b185 ef3d a3dc f5ba
000000b0: 5465 263e 31ba 873e d021 5f3e 4dc2 4fbe
000000c0: 9486 fe3d d7f3 99be a7cb 39be 1bc8 2f3e
000000d0: 82f5 36be 631e 8ebe 6fa1 243e 0fd9 a1be
000000e0: 5c03 3ebd 877b 833c 445f 5c3c 4fd9 1abe
000000f0: 523f 33be 1c53 873e 2606 68be c570 053e
00000100: 96f5 6dbe afea 7e3e b764 903e f1b6 1f3e
00000110: a2c1 6ebe c7bb 7a3e 2e4f 86be 36ca 6dbe
00000120: 3b73 a6be c02d f63c 649b 3dbe 4b3f 97be
00000130: 5d80 8ebe e432 58be 9b35 6e3e 15fd 363e
00000140: 2cf9 803e 561f 0d3e 1b5b c7bc 30df 65be
00000150: 81d5 c4bc ae38 053e 44f9 b13e 8278 a7be
00000160: 335d 2a3e ffd9 c0bc c462 173e 7f23 9ebe
00000170: 72ac 75be b8c1 64be b5f8 8ebe ef38 683e
00000180: 4eea 473d b8db b1be e8f1 d33d 3228 f43d
00000190: 1567 9cbe c447 69be 72d7 2b3e 633e 7c3e
000001a0: bae6 2c3e 9c0c 3ebe 9aaa 543e 9635 21be
000001b0: 1395 81be 6b1d a1be 94dd df3c 22b7 94be
000001c0: f7e7 64be a4e6 9cbe b620 583d 8000 5e3d
000001d0: 1de8 f2bd cc0e ea3d fefa 983e b298 3e3d
000001e0: 52b4 ba3d e6c3 22bd 3d81 5e3e c106 363d
000001f0: 9e5c 89bd 4656 8cbe 7d78 673e 3717 783e
00000200: e505 5f3e f102 97be 7648 133e 0d83 e23d
00000210: fd07 863e d3bc 9c3e 4f52 bfbd 69a7 9f3d
00000220: 2811 363d cdab 40be 5938 4d3e 037b 2fbd
00000230: c023 c4bd 21bd aebd 542d 303e f050 37be
00000240: 8eb0 7c3e 9623 633e 383d 663e dc21 9bbe
00000250: be6f a5be ccb5 e13d 7f37 8d3d f11f 0ebe
00000260: aa6c 80bd 0b46 acbe 1308 7abe e747 8b3e
00000270: 363e 4dbe bdfa 98be 2dc3 aa3e 615f e6bd
00000280: 5d46 4bbe 56e9 433d f88d 2a3e a67a f23b
00000290: 430d 9ebe eda7 5ebd a1f7 2cbe 9f39 fabd
000002a0: 2885 883e 4400 683d c61e cdbd 4469 783e
000002b0: 345d a1be 964b adbe 6d1c 963d 859c 54bb
000002c0: cc0f 4dbe 58ef e0bd 52cb 92be 6936 dc3d
000002d0: 5004 643e 4cdf 023e 9839 c3bb 5831 503e
000002e0: cea3 003e 7f43 843d 148c 9abd 71b7 93be
000002f0: 8ba7 853e 93ed a2bd 42b4 b1bd 2af9 9a3e
00000300: f947 243e 2ea0 973d 671d 8ebd 4272 ddbd
00000310: 3d81 1dbe 98a3 c03e 026b 13be 628d 883e
00000320: d60b b03e 5455 353c 0a89 a23e e61b 07be
00000330: c5c8 97be 4d02 88be d86a 72be 049a 983e
00000340: bb69 0f3e f40a 253d 7416 59bd 2608 8dbe
00000350: a4b4 1f3e 9186 793e c059 1ebd f805 82be
00000360: b0b7 abbe daca a3be 8f8f f4bc eb01 093d
00000370: e55c 5dbe b6b1 57bd 7887 e83d aee1 7b3e
00000380: c9c2 fd3d 73b9 893e 9d64 a2be 73e8 80be
00000390: 723a dbbc 9831 afbe 5dff 843e 6879 303e
000003a0: 5afc 37be 4639 89be 3b87 85be bf3d 7d3e
000003b0: 3219 b73e 688e c3bc e899 863d c9e5 5f3d
000003c0: 4c2e 37be 7e11 3a3e a239 093b 3284 423e
000003d0: 3744 82be 1e4d f2bc 0bc5 1fbe a11d 9abe
000003e0: 3ca1 57bd 0fd5 35bd aff4 333e 3f31 31bd
000003f0: c0b3 85be aec3 f23c 6ddf 7dbd 3cee 7cbe
-0.013314175 -0.15077214 -0.14721759 -0.1953891 -0.2741249 0.18351908 0.045597862 -0.067030616
-0.22427727 -0.23673901 0.03210788 0.22542034 0.072348975 0.10636658 -0.08117673 0.06260974
-0.23392431 -0.1154778 -0.061314598 0.27053934 -0.3466676 -0.00024183655 -0.13936223 -0.3504825
-0.13663454 0.03175781 0.03813111 0.048068654 0.09808323 -0.31948286 0.00300455 -0.24427405
-0.1156737 0.2281844 -0.059279125 -0.08481113 0.36453384 -0.09742929 -0.26843593 -0.03757688
-0.34900346 0.017974937 0.116954215 -0.0018757771 0.16249591 0.2650924 0.21790242 -0.20288964
0.124280125 -0.30068848 -0.18144093 0.17166178 -0.17867091 -0.27757558 0.16077207 -0.31610915
-0.046389922 0.016050113 0.0134504475 -0.15121959 -0.17504624 0.26430595 -0.22658595 0.130313
-0.23238215 0.24894212 0.2820184 0.1559713 -0.23316053 0.24485694 -0.26232284 -0.23221669
-0.3250979 0.030051112 -0.18516308 -0.29540476 -0.27832308 -0.21113163 0.23262636 0.1786998
0.25190103 0.13781485 -0.024335435 -0.2244842 -0.024027588 0.13009903 0.34760487 -0.32709128
0.16637115 -0.023541449 0.1478377 -0.30886456 -0.23991564 -0.22339523 -0.27924123 0.22677968
0.048807435 -0.34737945 0.10348874 0.11921729 -0.30547395 -0.22781283 0.16781405 0.24633174
0.1688489 -0.18559498 0.20768204 -0.15743098 -0.25309047 -0.31467757 0.027327336 -0.2904597
-0.22354113 -0.30644715 0.05276557 0.054199696 -0.11860678 0.114286035 0.29878992 0.04653234
0.091164246 -0.039737605 0.21728988 0.044440035 -0.067071185 -0.2740957 0.22604556 0.24227606
0.21779592 -0.29494432 0.1438311 0.11060152 0.2617797 0.3061281 -0.09341871 0.07795603
0.044449955 -0.18815537 0.20041026 -0.042841922 -0.09577131 -0.08532167 0.17204791 -0.17901969
0.24676725 0.22181544 0.2248429 -0.3029927 -0.32311815 0.11021003 0.06895351 -0.13879372
-0.06270726 -0.3364719 -0.24417143 0.27203295 -0.20043263 -0.29878798 0.33352032 -0.11248661
-0.1985106 0.04782995 0.1665572 0.0073998747 -0.30869493 -0.054359365 -0.16891338 -0.122180216
0.2666409 0.05664088 -0.10015635 0.24258906 -0.3151642 -0.3384673 0.073296405 -0.0032441926
-0.20025557 -0.10983151 -0.28670746 0.107525654 0.2226727 0.12780493 -0.0059577934 0.20331323
0.12562487 0.06458186 -0.07546249 -0.28850892 0.26104388 -0.0795547 -0.086769596 0.30268222
0.1604308 0.07403599 -0.06939202 -0.108128086 -0.15381332 0.37624812 -0.14396289 0.26670367
0.3438403 0.011067707 0.31745178 -0.13194236 -0.29645362 -0.26564255 -0.2367357 0.29805005
0.14005177 0.04029365 -0.05299993 -0.2754528 0.15596253 0.2436774 -0.03865981 -0.2539518
-0.3353858 -0.319907 -0.02985361 0.033449095 -0.21617468 -0.052659713 0.113539636 0.24597809
0.12390668 0.268993 -0.31717387 -0.25177345 -0.026761267 -0.34217525 0.25976077 0.17233813
-0.17967358 -0.2680151 -0.26079735 0.24730586 0.3576141 -0.023871616 0.06572324 0.0546625
-0.17888755 0.18170735 0.0020938893 0.18995741 -0.2544267 -0.029577788 -0.1560251 -0.3010073
-0.052644 -0.04439264 0.17573808 -0.043259855 -0.261137 0.029634323 -0.061980654 -0.24700254

bias f4 [400]
00000000: 464a 18be e0a5 96bd 905f 9dbe fa2b b03e
00000010: 4b4e 5b3d 335e 5abc 1923 423c 4372 4dbe
00000020: 0208 8e3e ebe0 e8bd 27af 70bd c5e6 b23e
00000030: 0ea0 95be 9c75 4abe f5ed 1ebe 1465 0e3e
00000040: fd12 dabd 2720 ad3e a510 8b3c 3429 cd3d
00000050: 4e2b 9c3e 7a31 813e 4f6b 0ebe f74c 22be
00000060: f807 143d 848d 50be 90c5 a5be 6d25 3cbe
00000070: bea0 803e 83bd 8bbe 1e9b 83be d8f8 533d
00000080: 8ffc aa3e 7df4 90be 744c a93e f507 a1be
00000090: 0e17 9c3d a097 4fbe 3ada 863e 5f6f 8e3e
000000a0: a83d 26be e374 9b3e 76c6 2bbe 66ba 08be
000000b0: 6c08 b13d ac74 793e ce57 883e b4c9 b1be
000000c0: 78f8 adbd 5c0b 843e 7f8c 903e 8385 903e
000000d0: 5433 04be a245 94be 83d0 963d cad9 9b3e
000000e0: 11d6 373e e266 acbe 62d9 91be 37ed babd
000000f0: d8a9 493e 5209 b8bd 2396 a83e 7375 aa3e
00000100: eced f53d de06 ea3b f205 b13e e4e7 33be
00000110: 1b3a ff3c f195 943e d1ca a5bd ccb8 61be
00000120: 2e08 54be 69f3 9abc dde9 613e 2f3c 08be
00000130: 2d02 873d 6d21 853e d564 8a3c 82ea e73d
00000140: 3ca6 02be a80d 4d3b 817f 33be f5fc 6fbe
00000150: e5d8 08be 42f6 c2bd b145 8dbe 87b3 873e
00000160: 1ce7 b3be 6631 51bd 706e 3d3e 14fb 4dbe
00000170: aab4 a33d bdaa 60be a6fe 0f3d b31e acbd
00000180: caef 1bbe cb96 86be 7ce4 dcbd 35e7 883e
00000190: a2c4 f43d e6f0 5bbd f254 6d3e 8cde 833e
000001a0: 09b0 81bd 13ab b03d 341c b73e d439 afbe
000001b0: 1ca9 4fbd bd46 d1bc 18b5 5d3e 3c67 22be
000001c0: e3a5 5fbe 693b b03e c3cd 6f3e 4091 993e
000001d0: 29f6 a3be cb71 473e 52cd 4bbe eb1e 7c3e
000001e0: 85b6 5bbe ea6c 2abe 22cd 52be af2a 46be
000001f0: 3129 de3d 07cc 87ba a8d0 ab3e fd49 1ebe
00000200: 1f02 a8be beaf 62bd 4201 dabd ffda a63e
00000210: d0f8 60be 30c0 fc3c 8dd6 043e 2287 193d
00000220: 7f8a 9c3e 5bb1 a83e e303 253e b318 cebd
00000230: 038f 283e 60b9 c83d d79e b4bd e3ec 16be
00000240: 7599 c2bd 23b3 bd3e 91b1 303e 4386 093e
00000250: cfa8 73be ccfa 823e 48be 323e 1375 74bd
00000260: 5786 27be eb1f 8fbe 985a ab3e 3201 92be
00000270: 8d11 793d 894b e83d 1151 b5bc 97d7 34be
00000280: dca1 7dbe 7c72 243e fb21 a23e 90ab 813c
00000290: 6a50 f63d dc7a 9d3e 3fa6 85be a457 2ebe
000002a0: 2aed 9c3e 4179 483d fac0 873e 36d6 873e
000002b0: d654 e63d c9cd b23d 818a 0abe ab38 15be
000002c0: 84d8 6b3e 34cf a5be c428 eb3c 8f3a aebe
000002d0: b2a4 f73a 655a d0bd 7254 7f3d 7aa7 a93e
000002e0: d240 14be bf5b 90be c9ae 9bbd 2966 9f3c
000002f0: 4c4c 183e 1c8f 4f3e 7ed8 a2be fab2 843e
00000300: 8c52 0dbe 9193 a8be e29f 1a3e 6e02 b43e
00000310: 1eaa 513e 4c1d 313e a1c8 013e 8385 36be
00000320: a4ed a2be 2ef9 a53e 2886 553d 65ac 97bd
00000330: 0b19 4abe 57a2 93be 2676 793e 1371 943e
00000340: 7fff 2dbe 1e60 ddbb ac3b 08be b01b 1f3d
00000350: a4c3 36be 44e9 97be ae21 b0be 1b8c 153e
00000360: 45a7 983d bc42 0f3d 9880 8e3e 9235 7f3e
00000370: 044d 3f3e fa2c 2f3d b8c3 7fbb 2527 843e
00000380: f2ec f2bd 13c5 853d 1ac6 553e b3de a0be
00000390: 862b 233e 2b9e 3e3d 8aa7 823e 29cf 9f3c
000003a0: 4f5d 783e 19f3 9d3e 4489 a2bd 6d9a 433d
000003b0: 4efa 80be fd11 ea3d 19cd 00be e173 2f3e
000003c0: 4a37 3b3e 1447 debd 45b2 23be af3f a6be
000003d0: 6f36 12be fa19 dfbd fff8 a33e 1fc7 083e
000003e0: bfc9 0dbd 5aee 883e 3743 4a3e 8b84 a23e
000003f0: 9c1f e3bd 8b0b 8a3d a537 a1be 499b ed3d
-0.14872083 -0.07355857 -0.3073697 0.3440855 0.053541463 -0.013328123 0.011849188 -0.20063119
0.27740484 -0.11371025 -0.05876079 0.34941688 -0.29223675 -0.19771427 -0.15520461 0.13905746
-0.10648153 0.33813593 0.01697571 0.100176245 0.3050179 0.2523306 -0.13908122 -0.15849672
0.036140412 -0.20366484 -0.3237729 -0.18373652 0.25122637 -0.27293023 -0.25704283 0.051750988
0.33395812 -0.2831153 0.33066142 -0.31451383 0.07621585 -0.20272684 0.2633837 0.27819344
-0.16234457 0.30362615 -0.16774926 -0.13352355 0.086441845 0.24360913 0.2662949 -0.347242
-0.08494657 0.25789917 0.2823219 0.2822686 -0.12910205 -0.28959376 0.07363989 0.30439597
0.17952754 -0.33672243 -0.28486162 -0.091272764 0.19693696 -0.08986153 0.32927045 0.33292732
0.120082706 0.007141932 0.34574848 -0.17568928 0.031155637 0.29020646 -0.08095325 -0.2204315
-0.20706245 -0.018914895 0.22061868 -0.13304208 0.06592212 0.26002064 0.016893784 0.11324026
-0.12758726 0.0031288657 -0.17529108 -0.23436339 -0.13363989 -0.09519626 -0.27592233 0.26504156
-0.3513726 -0.0510725 0.1849916 -0.2011531 0.07993443 -0.21940131 0.03515496 -0.08404293
-0.15228191 -0.2628692 -0.107857674 0.26738897 0.11951567 -0.053696536 0.23176935 0.25755727
-0.06332404 0.0862638 0.35763705 -0.34223807 -0.050698385 -0.025546426 0.21651113 -0.15859693
-0.21840625 0.34420326 0.23418336 0.2999363 -0.32023743 0.19477002 -0.19902542 0.2462117
-0.21456344 -0.1664311 -0.20586064 -0.1935222 0.108477004 -0.0010360488 0.3355763 -0.15457912
-0.32814118 -0.055343382 -0.10644771 0.32588956 -0.21969914 0.03085336 0.1297247 0.03748239
0.30574414 0.3294781 0.16114764 -0.10063305 0.16460805 0.098009825 -0.08819359 -0.14738803
-0.09501926 0.37050733 0.17255236 0.13430123 -0.23794864 0.25581968 0.17455399 -0.059681963
-0.1635984 -0.2795404 0.33467555 -0.28516537 0.060807753 0.11342532 -0.022133382 -0.17660366
-0.24768776 0.16059297 0.3166655 0.015828878 0.120270565 0.30757797 -0.26103398 -0.1702562
0.30649692 0.04894376 0.26514417 0.26530617 0.1124665 0.08730657 -0.13529398 -0.14572398
0.23031813 -0.32384646 0.028705962 -0.34029052 0.0018893688 -0.101734914 0.062336393 0.33135587
-0.14477852 -0.28194997 -0.07601697 0.019457893 0.14872855 0.20269436 -0.31805795 0.25917798
-0.1380102 -0.32925084 0.15100053 0.35158104 0.20475051 0.17296332 0.1267419 -0.17824368
-0.3182193 0.32416672 0.052129894 -0.074059285 -0.19736116 -0.28834793 0.24361476 0.2899252
-0.16991995 -0.006755843 -0.13304013 0.038844764 -0.17848068 -0.29670155 -0.34400696 0.14604227
0.07453779 0.034975752 0.27832484 0.24922779 0.18681723 0.042767502 -0.003902657 0.25811115
-0.118616 0.065317295 0.20876351 -0.31419906 0.15934572 0.04653756 0.25518447 0.019507961
0.24254344 0.3084953 -0.079363376 0.047754694 -0.25190967 0.11429212 -0.12578239 0.17134048
0.1828281 -0.10853401 -0.15985973 -0.32470462 -0.14278577 -0.108936265 0.32025906 0.13357209
-0.03461623 0.26744348 0.19752203 0.31741747 -0.110900134 0.06740483 -0.31487766 0.11601884

weight f4 [200, 400]
00000000: 6994 2abd cbf0 d93b f7b3 233d 1fa2 08bd
00000010: 6dfc 043d 87f4 54bd fbde 21bd b3ee 02bd
00000020: 105a fdbc 15e3 1abd 13d2 c93c 60a4 18bd
00000030: 736e 12bd 4170 97bc 41b7 35bc ffb5 b93c
00000040: 9bee f8bc cf9f 6abc fb4b be3b 762a cebb
00000050: 3d64 0b3d 856f 2d3c a472 2fbc 5876 d23c
00000060: dba2 133d fed8 043d 843b 6abc 9db3 1f3d
00000070: b6a6 5abc 92d2 38bd 473e debc 6936 853d
00000080: fdf7 253d 2344 1d3c c9b8 533d bf2b 14bd
00000090: f116 193d 7779 97bc 8c13 963b 6634 e03c
000000a0: 7492 a23c c080 e4bc 5468 82bc 79ca 8038
000000b0: cb45 72bc b8f2 fe3c fc1c 2ebd fc15 bb3c
000000c0: d85f 14bc 150f 4abd 538c b4bc 6b84 63bc
000000d0: 4fca 18bc 0bef 2cbd a4f3 363d 2b49 94bc
000000e0: 2db2 9fbc b325 04bd bb62 5e3c 55f9 d6bb
000000f0: 4add 55bd 1aef fb3c 9c97 01bd e885 b4bc
00000100: f1c4 a03c ffe3 b23c 7c08 a33c c9bc a43c
00000110: cbca 3b3d aca0 8abc f707 c1bb 0bf1 a23b
00000120: 883d 293d a75c d2bc c0ba ea3c 3f99 26bd
00000130: 09a5 16bd fb86 06bd 3809 d23c f886 3b3d
00000140: 1d20 63bc caac eb3c 7ebd e7bc 10b2 1b3c
00000150: aed9 fa3c 697e 0c3c 8012 23ba db18 29bc
00000160: 6d68 c93b b1dd 21bd 115d 873c b0e5 063d
00000170: aba4 163c aeeb df3c c2b8 2ebc a2b0 553d
00000180: 5305 fdbc 7adc 3e3d e589 f03c 1a37 b93c
00000190: fc12 223d f765 383d 8e94 6dbc da80 4bbd
000001a0: 0e4b d6bc 3a81 20bc d78c 113d 7dfa 273d
000001b0: 0a6f 983c 8a48 ca3c 5a60 893c a647 80bc
000001c0: fde0 d63c be18 dbbc 7404 cebb e577 54bc
000001d0: 56be 203d afa7 b63c 8545 8d3c 7310 0cbc
000001e0: 4c65 d63c 3ee6 8f3c 5efd 14bd 4d4b 3e3c
000001f0: 8f06 87bb b773 a33c eff2 54bc 191e 48bc
00000200: fe43 83bc cb91 ee3c f129 8bbc d557 793c
00000210: c34a c5bc 2f67 3b3c f231 1ebd e87f 913c
00000220: 207b 143d 606b 9aba 76a1 51bc 79ad 8b3c
00000230: 8c70 e6bc c433 44bd 1ba4 02bd c5fe 0c3d
00000240: c5be 3f3c 1b58 94bc b3d2 e1bc 4485 20bd
00000250: a2b5 203d 0aed 28bd bca3 fbbc d810 debc
00000260: 531d 23bb 861d 98ba 5dc1 05bd dcdf 24bd
00000270: 5080 953c c061 35bc cda6 10bd 91d9 dbbb
00000280: 7b4b 423a 076a 48bd c513 46bd 873a 2b3d
00000290: cb07 4d3c 3127 9fbc 67c2 113d 75b8 e8bc
000002a0: 0f2a 3c3c d076 6fbc cce6 aa3c 7889 9f3c
000002b0: 7fa4 2ebd 9afd ca3c d2b3 923c 917d bdbc
000002c0: f926 3d3d 7c7e 9dbc 9968 0d3c ee3c 1b3d
000002d0: 5e13 633c d83f 0c3d 68e9 c53c 4882 e7bc
000002e0: 736e e93c ec01 663c d5f6 b8bc 7c0f 6e3c
000002f0: 7975 933c b5d3 e9bc 0f74 f5bc 8978 0e3d
00000300: 3034 f9bc 2015 033d 2d40 173d c3a5 34bb
00000310: 8b43 ca3c 3cc3 1e3d 8928 03bc d167 e63b
00000320: 6b53 0cbd 3079 533d 1fc0 453d 043e 2abd
00000330: ce35 15bd 15b4 243d 379e f9bc 47ed 0f3d
00000340: 1f08 3abd bf6e db3b b3f5 65bd 70f3 3d3d
00000350: d520 ed3c 449a 18bd cbbb fe3c 068b 8dbc
00000360: 85b1 823b b26c 553c e39a 4a3c 97ab 9d3c
00000370: 9cea 113d de86 8bbc 2300 f83b 9050 05bc
00000380: 4ae8 24bd b55f 6e3d bb76 3e3d 5c3b 8b3c
00000390: 8547 0d3c 521f 833c a7d9 963b 5695 e13c
000003a0: 5eb1 653d 5e11 dabb 837e 19bc cff6 bbbc
000003b0: 57c8 febc 3c4d d33b 298e 023d 98b5 67bc
000003c0: 19d6 323b e144 f73c d12b 1cbd b86d 11bd
000003d0: 00a9 b53c aaba d7bb 3e56 fbbb eee7 1f3d
000003e0: ee41 3dbd a035 d83b c272 2d3d 3059 44bd
000003f0: ae25 423b 3450 44bc 7686 e3bc 4b34 0e3b
-0.04164544 0.006651019 0.03996655 -0.033357736 0.032467294 -0.051991012 -0.03951929 -0.031965923
-0.030926734 -0.03781422 0.024636304 -0.037266135 -0.035749864 -0.018486144 -0.011091054 0.02266979
-0.030387213 -0.014320328 0.0058073974 -0.006291683 0.03403114 0.01058567 -0.010708485 0.025691196
0.036043983 0.032433502 -0.014296416 0.038989652 -0.013345411 -0.04512269 -0.027129306 0.065045185
0.040519703 0.009598765 0.051689897 -0.036174532 0.037375394 -0.018490536 0.004579967 0.027368736
0.019845225 -0.027893424 -0.015918888 6.141229e-05 -0.014787148 0.031121597 -0.04250811 0.022837631
-0.009056054 -0.04933079 -0.022039568 -0.013886551 -0.009325578 -0.042220157 0.044665948 -0.018101295
-0.01949414 -0.032262515 0.013573344 -0.0065604844 -0.05221299 0.030753661 -0.031638727 -0.022036508
0.019625159 0.021837233 0.019901507 0.020109551 0.045847695 -0.016922317 -0.005890842 0.004972582
0.041318446 -0.025678946 0.028653502 -0.04067349 -0.036778484 -0.03284357 0.025639161 0.045783013
-0.013862637 0.028768916 -0.0282886 0.009502903 0.030621376 0.00857506 -0.0006220713 -0.010320867
0.0061464817 -0.039518062 0.01652387 0.03293389 0.009194533 0.02733406 -0.010664167 0.052170403
-0.030886328 0.04659698 0.029362628 0.022609282 0.039568886 0.045019116 -0.01450075 -0.04968343
-0.026158836 -0.009796435 0.035534706 0.04101037 0.018607635 0.024692792 0.016769577 -0.015659165
0.02623033 -0.026745196 -0.006287152 -0.012968038 0.03924402 0.022296755 0.017245064 -0.008548844
0.026171349 0.017565843 -0.036374442 0.011614633 -0.004120655 0.019952638 -0.012997373 -0.012214207
-0.016023632 0.029122254 -0.016987773 0.015218695 -0.0240835 0.011438175 -0.03862185 0.017761186
0.036250234 -0.0011781268 -0.012794843 0.017050492 -0.028129838 -0.04790093 -0.031894784 0.034422655
0.011703198 -0.018108418 -0.02756629 -0.039189592 0.03923572 -0.041241683 -0.030717723 -0.027107641
-0.0024889305 -0.0011605478 -0.03265511 -0.04025255 0.01824966 -0.011070669 -0.035315324 -0.0067092855
0.000741176 -0.04892924 -0.048358697 0.041803863 0.012514065 -0.019427868 0.035585787 -0.028408268
0.011484637 -0.014615729 0.020862006 0.01947473 -0.042637344 0.02477913 0.01790801 -0.023131164
0.046179745 -0.019225352 0.008630895 0.037899904 0.013859598 0.034240574 0.024159148 -0.028260365
0.02849505 0.014038544 -0.022578636 0.014530059 0.018000351 -0.028543333 -0.029962568 0.03478292
-0.030420393 0.03200257 0.036926437 -0.0027564622 0.02469041 0.03876041 -0.00800527 0.007031419
-0.03425924 0.051629245 0.048278924 -0.04156305 -0.036428265 0.040210802 -0.03047095 0.035138395
-0.0454179 0.0066965516 -0.05614252 0.04637474 0.02894632 -0.037256494 0.031095406 -0.017278206
0.003988447 0.013026403 0.012366029 0.01924686 0.03562413 -0.017032083 0.0075683757 -0.008136883
-0.04026059 0.058196742 0.04649995 0.016996078 0.008623009 0.016006146 0.004603583 0.02753703
0.056077354 -0.0066549024 -0.009368542 -0.022944836 -0.031101389 0.006448416 0.031873856 -0.014142416
0.0027288257 0.030184211 -0.038127724 -0.035505027 0.022175312 -0.0065835314 -0.007670193 0.039039545
-0.046205454 0.0065981895 0.04234577 -0.04793662 0.002962451 -0.011982013 -0.027774077 0.002169865

bias f4 [200]
00000000: 7c59 023d 6581 4cbd 899f 06bd 3daa 88bc
00000010: 07f1 213d 5d89 a43c 55cd d0bc 66ec 103b
00000020: 9b5f 4e3d 2abb babc 65de 9dbc 831b b43c
00000030: db7a f33c 772a 153a 3bbb 613c 19ac 3d3d
00000040: 0002 563c 0909 1fbd 8516 843b 26fe 9b3c
00000050: 9ef3 36bb 947c c8ba 53c5 c43b 0f6e 303c
00000060: b7b5 9fba cd27 a23b 6656 efbc 13ee 673c
00000070: 716d c2bc 7ee4 05bd f518 54bc ef4b 12bd
00000080: 07f6 523d a172 30bd f106 2bbd 5fa3 30bd
00000090: 4cdc 94bc 19fc 313b 3d75 a83c 5f83 33bd
000000a0: 0e55 253d f579 f83b c902 f1bc a346 c9bc
000000b0: e083 fcbc 3bd9 aabc 3cd6 9cbc 22d0 d3bc
000000c0: d9f1 e83b e052 79bc 3006 5bbc fc43 f23b
000000d0: 9eaa a3bc 98f4 8d3c e186 02bc f6ae 223d
000000e0: 542d 01bd ff37 353d f5c8 a83c 0e89 23bc
000000f0: e2ce 9e3c 464d 033d 787d 5a3d b30e a2bb
00000100: 5ab9 7dbc d69d 223c e603 213c 7a39 c0ba
00000110: 22f8 45bc 321f 2e3d a827 63bc 9747 42bc
00000120: c746 9b3c 73ff 98bb 98c1 bebb 29e4 2e3c
00000130: f457 9abc 98c0 803a b640 d4bb ecbb cb3c
00000140: 9f0b 85bc 9c57 02bd 92f6 3fbd 17ba 1bbd
00000150: a7c9 653d 88b8 1c3d 0149 29bc 4628 26bd
00000160: 2a69 b13c 4f3b 393d a9c6 a33c 9691 e3bb
00000170: e441 f7bc 1fb7 373c fd1d 2dbd 816a 5cbc
00000180: ed8f d83c ea80 913c 061b 82bc 91db 393d
00000190: 8d3e 753a d47a aabc 1418 b1bc fb54 62bc
000001a0: 7bdf 933c 0a0a 0a3d 7612 0cbc 29a3 3f3b
000001b0: ef48 a63c b824 3bbd d6cd e1bb 1359 8e3c
000001c0: 2038 87bc dfef 7b3c 36de d4bc f849 18bd
000001d0: 5743 253d 8942 b7bc 68ed 04bd f0ad c8bc
000001e0: dd19 cebc deae 8f3c acde 263c ee34 54bc
000001f0: 5ff3 cebc c585 2fbb 5b6a 72bb 7053 9fbc
00000200: c5fc 88bc d78d c2bc 03e2 b93b 5ff6 ac3c
00000210: 38d6 d63c 0117 143d 320f 0d3d df8c 733a
00000220: af49 e13c 0ebf 923c 95e8 4dbd 8840 3fbb
00000230: 411d 813c f062 0fbd d005 37bd 651d c0bc
00000240: 36ff a73c 6057 0cbd e8f0 c3bc 0b65 0f3d
00000250: 30ff 963c 9e8e 1c3d ca01 bdbc ffcb 593d
00000260: 7a52 b1bb 617c 243d 0b8f 0dbd 49ca e1bc
00000270: b144 4e3d 79ca 3fbd 6c3e fd3c 2d2f babc
00000280: 9a5b 47bc 9508 8f3c 4acd 313d c128 d3bc
00000290: 7d88 c33c a2d3 32bc cb67 f73c 96e3 e13c
000002a0: 4038 1d3b 93b5 d73a d1cd dfbc 20dd 093d
000002b0: 509d d93c 4e28 973c 872a 143d 7de4 a03c
000002c0: 5f15 483d 57f4 303d 9868 bc3b 0334 3abd
000002d0: ff58 d7bc 312a 0c3d ee7a ad3c 6264 163d
000002e0: 813b 203d a0b3 19bc 91e8 14bc 66eb 213d
000002f0: dc90 07bc 2bc3 85bc a6f7 c7bc e211 28bb
00000300: 662b f13b 1def 31bd 0b08 5cbc bc66 55bc
00000310: 8a3c ccbc 08b3 013d bef3 673d f924 663c
0.03182362 -0.049928088 -0.03286699 -0.016682738 0.039536502 0.020085031 -0.025488535 0.002211356
0.050384145 -0.022794325 -0.019271085 0.021985775 0.029721668 0.00056902267 0.013777549 0.046306703
0.013062 -0.038826976 0.004031005 0.019042086 -0.0027916203 -0.0015295916 0.006004968 0.0107684275
-0.0012184893 0.0049485923 -0.029216003 0.014155882 -0.023733826 -0.03268861 -0.012945403 -0.035716947
0.05150416 -0.04307807 -0.041754667 -0.043124553 -0.018171452 0.0027158319 0.020563716 -0.043826457
0.040364318 0.007582898 -0.029420273 -0.024569815 -0.030824602 -0.020855537 -0.019145124 -0.025856081
0.0071089086 -0.015217513 -0.013368174 0.0073933583 -0.019978818 0.017328545 -0.007966728 0.039717637
-0.03153737 0.044242855 0.020603636 -0.009981407 0.019385759 0.032056116 0.053342313 -0.0049456
-0.015486086 0.009925326 0.00982759 -0.0014665567 -0.012083085 0.04251022 -0.013864435 -0.011857889
0.018954648 -0.004669124 -0.005821418 0.010674515 -0.018840767 0.0009823022 -0.0064774407 0.024869882
-0.016240893 -0.031821832 -0.046866007 -0.038019266 0.056100514 0.03826192 -0.010332347 -0.04056575
0.021656591 0.045222577 0.01999219 -0.0069448454 -0.030182786 0.011213093 -0.042264927 -0.013453127
0.026435817 0.017761666 -0.015882026 0.04537541 0.0009355329 -0.020810522 -0.021617927 -0.013814206
0.0180509 0.03370098 -0.008549323 0.0029241538 0.02029845 -0.045689315 -0.0068909926 0.017376458
-0.016506255 0.015377014 -0.025984865 -0.037179917 0.040347423 -0.022370594 -0.03245297 -0.024497002
-0.025158817 0.017539438 0.010184925 -0.012952073 -0.025262533 -0.0026782614 -0.0036989662 -0.019448966
-0.016722092 -0.023749275 0.0056726946 0.021113573 0.026225194 0.03615475 0.03443832 0.0009290706
0.027500955 0.017913368 -0.050270636 -0.002918275 0.01576102 -0.035006464 -0.044683278 -0.023451516
0.020507436 -0.034263015 -0.023918584 0.03500847 0.01843223 0.038221948 -0.023072142 0.05317306
-0.0054114433 0.04015768 -0.034560245 -0.027562277 0.050358478 -0.046823952 0.030913554 -0.022727573
-0.012167836 0.017460147 0.04340867 -0.025776269 0.023868794 -0.010914715 0.03020086 0.027574342
0.0023989826 0.0016457312 -0.02731982 0.033658147 0.02656427 0.018451836 0.03617337 0.019640202
0.048848506 0.04320177 0.0057497732 -0.04545976 -0.026287554 0.034219924 0.021176782 0.036716826
0.039119247 -0.009381205 -0.009088651 0.039531134 -0.008274283 -0.016328415 -0.02441008 -0.0025645425
0.00735991 -0.043440927 -0.013429652 -0.013024982 -0.024931211 0.031664878 0.056628935 0.014046901

weight f4 [2, 200]
00000000: 2a64 30bd e908 c3bb 864e 0dbd 48d3 023c
00000010: 4a77 323c c6f2 7a3d 65c1 ab3b 822d a5bd
00000020: 4179 df3c 8d7a 333d 574c 97bd 160a 713d
00000030: 58f8 94bd fdd3 443d ee6a 9c3b cd5b 543d
00000040: 495c 72bd db68 81bc 11e6 4b3c 4b99 80bd
00000050: 9f9b 15bd aa0e 3d3d c55d 91bd 4c3c ab3d
00000060: dcb4 673c 760f 803c ae4c 6d3d fd65 933c
00000070: eda4 c4bb c8e0 c53c 575c 91bd 4762 15bd
00000080: 3b62 24bd b63f 7bbd 55c6 14bd 0574 a13c
00000090: 950c a93b 6e3a 833d 9318 713d abe4 05bd
000000a0: d18d 9fbb d864 edbb a1e8 a83d 1b26 203d
000000b0: 4c6b 3c3d 8863 513d 756e 4f3d 154f 6f3d
000000c0: 4135 9abd edc8 823c b1ab 61bd a051 56bb
000000d0: f652 0a3d 3253 8b3d bf4e 64bd 198d 96bb
000000e0: be43 64bd 5ed0 afbc c850 2d3c 313c b9bc
000000f0: e17c 1abd 0862 f8b9 9186 a63d 5338 453d
00000100: 87a4 edbc 3817 54bd f79e 96bc dc6d 0e3d
00000110: b28b 29bd 3c2c 08bd bd28 84bd 2513 583d
00000120: 0c89 16bd ab2f 8f3d a4d9 7a3c 9b78 a13d
00000130: e253 853d b13f 92bc f2f1 afbd bd0e 9bbd
00000140: c2a6 97bd 060a 5abd a463 39bd 17d7 2dbc
00000150: 8e4b 823d 2e49 183d 0974 87bd 573c 88bd
00000160: 8220 2d3d 76ec 3ebd 90d2 3c3c 84b0 013d
00000170: 96ad 333d 1c23 2abd 2944 41bd ef5f 3ebd
00000180: 421b 88bb 6b33 e83c 407a a63d a9f1 6cbd
00000190: e04e 993d 84f9 c4bb 2259 223d 77b9 68bc
000001a0: e941 bcba d067 8d3d e37e 873a f1dd 3a3d
000001b0: c57e 333d 4a92 15bc 9d57 a83d ae91 d03c
000001c0: fa21 ac3d 8b7a 8e3d 3bc5 75bd a3fb 59bd
000001d0: 46c6 86bd 879b 9f3d d815 cb3c ee23 cc3a
000001e0: e8f4 94bd d464 81bd d2b2 3f3d 9b79 87bc
000001f0: 0130 58bd c01a 56bd 7019 b5bc d571 26bd
00000200: 4304 5abc 5b55 7c3a 05f9 003d 9698 933b
00000210: 4146 c7bc 8d64 9fbd 42e6 33bc 0778 85bd
00000220: df74 b8bc 2f73 133d 60ad 49bd b42b 6f3d
00000230: 7c28 523d 2fce 95bc cce1 96bd 25ca a4bd
00000240: a3f8 40bc 78f2 1bbd 4243 48bd 6869 99bd
00000250: 7653 8d3d 8169 c1bc db88 d23b 272f 4dbb
00000260: 49e9 4dbc 62ec d3bb 3b37 8abb c6ed cd3c
00000270: 356d 0cbd cfab 5f3d 1b2a ba3c 0ee2 4f3c
00000280: 9dfe d93c 12f8 d3bc 79d2 2b3d 5d7f 0fbd
00000290: 20a1 ce3c 0bf0 4b3d 3258 52bd f45c 31bd
000002a0: 521e 97bd 8d6f dd3c e154 a33c 6c99 653d
000002b0: f973 3b3c d82d 6abd 928c 963d 1275 77bd
000002c0: f195 b5bd 7abe 173b ca08 703d 64a3 843c
000002d0: e371 4a3d f69b 933d 7c40 9cbd ad20 36bd
000002e0: 3c7a 973c d001 80bd f5db 973c e897 6f3b
000002f0: 182f 5d3d 8bd8 b53c 1447 bd3c bbe5 92bd
00000300: af2a 04bd 0080 0fbc 7c6b 60bd 048b 443d
00000310: 88a1 903c 93ae 95bd a9a4 913d cc64 ba3c
00000320: 1f83 69bd 5d97 b3bc d1dd bb3d 9567 51bc
00000330: 0714 5abd 203e bebc 2c34 873d a27d 853d
00000340: 847a b23c 9cb4 b13d 41b0 8fbd 20e5 41bd
00000350: f6f4 9f3d fb87 efbb 0a88 2fbc 360a 683d
00000360: fd3d 173d 1fbb 893d 5fdc 1e3d 74dc 733d
00000370: cf7b 9e3d 4e63 383d e1c3 9fbd 3a57 e43c
00000380: 3575 1e3d 0e4b 5ebd d7e9 363c 152f ef3c
00000390: 720a 4e3c 4ea6 b9bc c640 053d 5172 6d3d
000003a0: 2f52 8c3d 7cbe 883d af6e 9f3d 9bea 403d
000003b0: 5beb 2d3d 09f9 67bd b654 f93c bf3b f8bc
000003c0: 77f4 823d 8a5e 59bd 3ac3 a43d c350 c03b
000003d0: 17e5 6abd 12c2 10bb bc62 10bd e97b 75bd
000003e0: 78ab 013d 7f5d 9abd e61c 87bd c3bc 0b3b
000003f0: eb74 47bd fd51 023c 76fa b7bd a76a 19bd
-0.043064274 -0.00595199 -0.034498714 0.007984944 0.010892699 0.061266683 0.0052415603 -0.080653206
0.027279498 0.043818045 -0.073876075 0.05884751 -0.0727393 0.04805373 0.004773489 0.05184536
-0.05917004 -0.01579707 0.012444989 -0.06279238 -0.036525365 0.046156563 -0.07097963 0.0836111
0.014142241 0.015632372 0.057934456 0.017992968 -0.006001106 0.024155036 -0.070976906 -0.036470678
-0.040132742 -0.061340056 -0.036321957 0.019708643 0.0051589706 0.06407629 0.058861326 -0.032688778
-0.0048692008 -0.0072446875 0.082474954 0.03909884 0.046000764 0.05112031 0.05064245 0.058425028
-0.075296886 0.01596495 -0.05509538 -0.003270246 0.033770524 0.068029776 -0.05573916 -0.004594457
-0.055728666 -0.021461662 0.010578342 -0.02261171 -0.03771675 -0.00047375285 0.08131135 0.048149418
-0.029009117 -0.051779956 -0.018386347 0.03477274 -0.04139299 -0.03324531 -0.06453083 0.052752633
-0.03675179 0.06991514 0.015310679 0.07884332 0.0651014 -0.017852636 -0.08591069 -0.075711705
-0.074048534 -0.053232215 -0.04526104 -0.010610363 0.06362067 0.037179165 -0.06613929 -0.06652134
0.04226733 -0.046612225 0.011524811 0.03166248 0.043866716 -0.04153739 -0.047184143 -0.04647821
-0.00415364 0.02834483 0.08128786 -0.057847653 0.07485747 -0.00601119 0.039635785 -0.0142043745
-0.0014362904 0.06904566 0.0010337498 0.045621816 0.04382207 -0.009129116 0.08219836 0.02546009
0.08404918 0.06956967 -0.060002547 -0.053218495 -0.065807864 0.07793336 0.02479069 0.0015574673
-0.07273275 -0.063180596 0.046801396 -0.016537478 -0.052780155 -0.052271605 -0.022106856 -0.040635902
-0.01330668 0.0009625756 0.031487484 0.0045042736 -0.024325492 -0.077828504 -0.010980191 -0.06517034
-0.022516666 0.03599852 -0.04923761 0.058391288 0.05130814 -0.018286793 -0.07367286 -0.080463685
-0.01177803 -0.038073033 -0.048892267 -0.07490808 0.069006845 -0.023609878 0.006425006 -0.0031308623
-0.012567827 -0.006467388 -0.0042180098 0.025137793 -0.034283835 0.05460721 0.022725156 0.012688173
0.026610667 -0.025875125 0.04194877 -0.035033572 0.025223315 0.04978947 -0.05135364 -0.043301538
-0.0737883 0.02703073 0.019937934 0.056054518 0.011441224 -0.057172626 0.073510304 -0.06041438
-0.0886649 0.0023154304 0.058602132 0.016191192 0.049425017 0.072074816 -0.07629487 -0.044464756
0.018490903 -0.06250346 0.0185375 0.003655905 0.05399999 0.022197982 0.023105182 -0.07172724
-0.03226727 -0.008758545 -0.054790005 0.047984138 0.01765515 -0.07308688 0.071114846 0.022753142
-0.057009812 -0.021922762 0.091731675 -0.012781044 -0.053241756 -0.023222983 0.06601748 0.06518103
0.021786936 0.08677027 -0.0701604 -0.04733765 0.078103945 -0.0073099113 -0.010713587 0.056650363
0.03692435 0.06725144 0.03878438 0.059536412 0.07738458 0.04501658 -0.07801033 0.027873624
0.038685996 -0.054270796 0.01116415 0.029197255 0.012575733 -0.022662308 0.032532476 0.05797035
0.06851613 0.06676957 0.07784783 0.047098737 0.04246078 -0.056633983 0.030435901 -0.030301927
0.06394284 -0.053068675 0.08045049 0.0058690025 -0.057347383 -0.0022088331 -0.03525041 -0.059932623
0.031657666 -0.07537364 -0.06597309 0.0021322228 -0.048695486 0.007954118 -0.089833185 -0.037455227

bias f4 [2]
00000000: ccec 71bd 7a8c 843d
-0.059063718 0.06472106

weight f4 [200, 400]
00000000: 3031 553b 6d31 eebc 1884 e3bb 84f5 7c3c
00000010: 420a ae3c 1062 06bd 93c0 273d 40ff 0dbc
00000020: 9a42 80bc cc0e 4dbc 541a 99bc e3ed f7bc
00000030: c4f2 523c f561 24bd 6884 53bc 19b7 463d
00000040: c2eb e53c a014 423c 8c83 583c 960e 21bd
00000050: 58cb 263c 48d6 23bd 4a30 81bc 5081 49bd
00000060: a820 c33b 12c3 38bd b162 233d f22e 2abd
00000070: 94ed 26bc b91d 003d 1d81 44bd 0385 1cbd
00000080: e0c8 39bd e95a 3d3d 08b0 2dbc 67f9 3ebd
00000090: 376e c4bc d02f 163b 6c77 6a3c e01d 5b3b
000000a0: 5a1b d5bc dd5d 36bd b029 f1bb 2f01 163d
000000b0: 978b f3bc 8053 413a 98e5 a2bb d84a 043c
000000c0: bf80 433d f46e 573c 2760 c8bc 38cd 0ebc
000000d0: fa8a ec3c 185e 18bc 1fac 3fbd dd45 c1bc
000000e0: 40dd d73b 27f2 e9bc e7a5 3abd 1053 c8bc
000000f0: 5ae0 823c c68b f83c f61c 82bc 548b 553c
00000100: 84dd 593c ab10 203d d315 b1bc 3d5e 04bd
00000110: 8c99 3a3c a20c eb3c 9019 42bd 18f0 cabb
00000120: 90d4 ccbc ec6c 47bc ec77 4b3c d67d 97bc
00000130: 49d8 373d ba14 81bc 576d a8bc 0088 0bba
00000140: 6619 15bd a06e 473c 88a9 4cbd 0764 3a3d
00000150: 25d6 48bd c02a c5bc 9a52 c6bc cb91 36bd
00000160: e2ec e23c c454 5c3c 2a93 81bc 008c dd39
00000170: ef3c 4c3d 9348 313d ca63 833c e32e f4bc
00000180: 5252 2cbd 2a51 823c c07b 96bc 2075 f1bc
00000190: f3d1 063d 001a 423a cce9 7e3c 12c9 39bd
000001a0: adbb 08bd b8b2 66bc 2db8 fcbc 3d2f fabc
000001b0: cc30 2cbc fdf3 31bd 9256 ab3c d028 26bb
000001c0: 3973 4b3d 9324 3ebd fd36 14bd 0eca 10bd
000001d0: 4631 0dbd d8f7 463c 0c83 5c3c 66c3 803c
000001e0: 4044 13bc 62db 903c 76fa f33c 00ce 103b
000001f0: 20ef 063c 863d fa3c 1882 70bc 8098 553b
00000200: 83ae 3d3d cd4e 30bd b021 eebb c394 16bd
00000210: 4525 2c3d 2076 3cbd 3042 183b 48fe 66bc
00000220: 7944 263d 2248 d63c aaa0 f1bc ed4b 06bd
00000230: e0d7 4a3b 2f7e 073d 74e1 97bc a6a6 1dbd
00000240: 057e 42bd 7c47 86bc 3b1f 4bbd a055 bcba
00000250: 3e50 ef3c 3042 473b a263 fb3c 434b 1f3d
00000260: 7230 28bd 7ada db3c 5832 3abc a6e8 9e3c
00000270: a0e2 1dbd a8e4 1abd 69c2 353d b328 f8bc
00000280: c321 473d 42c2 843c fb98 3e3d 6757 2d3d
00000290: f5c2 2b3d d049 7ebb 5250 ae3c f91e 2f3d
000002a0: b8fc 0cbd b64a d63c 64e7 593c 11e2 2e3d
000002b0: 80b9 7abc e174 133d 57d4 363d 11a4 153d
000002c0: f9d0 0f3d 4031 8a3a 00c2 15ba 6059 bc3a
000002d0: 0c7a 3bbc 60ba 3bbd 19a8 343d 8089 d339
000002e0: 8035 eab9 d657 f23c b02c 5cbb 3a0f 0fbd
000002f0: 663d 19bd 3aab 9e3c 2a92 b43c ac57 69bc
00000300: 9e74 993c 453d 273d 8811 3fbc ac90 6a3c
00000310: 0026 fbba 70c4 1bbd 05f4 183d 0c7d 4d3c
00000320: 4830 37bd e418 90bc caf9 07bd 482c 143c
00000330: b9df 343d d75f 1b3d e823 5fbc b03c b43b
00000340: e2cb 37bd 302d 39bd c750 3b3d 05ef 24bd
00000350: 43be 473d 86f4 ee3c 46ac a63c 4436 723c
00000360: 5edd e53c 09a7 043d 72b6 e23c 551c 393d
00000370: 6286 a03c 68d5 fb3b ea79 ad3c a730 053d
00000380: 40cd dbbb 800f 4cbb 6bc7 16bd 0075 f8bc
00000390: 00f1 f13a d3b7 a5bc 4ab6 9abc a83a 39bd
000003a0: 3d68 a9bc ffff 2ebd 186e 61bc 9492 56bc
000003b0: 3d77 eebc 2b75 24bd 2450 7e3c 9077 92bc
000003c0: fa45 e3bc a3b8 a1bc c0f1 fdbb a7ba bebc
000003d0: 7200 f63c 82e1 cf3c 1ec1 ce3c ee69 06bd
000003e0: 44fd 4d3c 6819 123c 387d 26bc e005 17bc
000003f0: 2014 3d3b 30b6 3cbd cb88 2ebd 6180 323d
0.0032530539 -0.029076302 -0.006943237 0.015439395 0.021245126 -0.032808363 0.040955137 -0.008666813
-0.015656758 -0.012515735 -0.018689312 -0.0302648 0.012875263 -0.04013248 -0.012909986 0.04851446
0.02806652 0.011845738 0.013214957 -0.03932055 0.010180317 -0.039999276 -0.015770096 -0.049195588
0.0059548207 -0.04510791 0.03988904 -0.041548677 -0.010188479 0.031278346 -0.047974695 -0.038212787
-0.045357585 0.046229277 -0.010601051 -0.046624567 -0.023978336 0.0022916682 0.014310699 0.0033434555
-0.026014019 -0.04452311 -0.007359706 0.036622223 -0.029729648 0.0007374808 -0.0049712174 0.008074485
0.047730204 0.013149012 -0.024459912 -0.00871592 0.028874863 -0.009299777 -0.046795007 -0.023592884
0.0065876544 -0.02855785 -0.045568373 -0.02445367 0.01597612 0.030340087 -0.01588295 0.013033707
0.013297442 0.039078396 -0.021616852 -0.032316435 0.0113891475 0.028692547 -0.04738766 -0.006193172
-0.025003701 -0.012171965 0.012418728 -0.01849262 0.044884 -0.015756954 -0.02055995 -0.0005322695
-0.036401175 0.012172371 -0.049966365 0.04550555 -0.04903235 -0.024068236 -0.02420931 -0.044572633
0.027700845 0.013447944 -0.015817244 0.00042256713 0.0498628 0.043282103 0.016038794 -0.029807514
-0.042070694 0.015907843 -0.018369555 -0.029474795 0.032915067 0.0007404387 0.015558671 -0.04535777
-0.033382107 -0.014080696 -0.03084954 -0.030540103 -0.010509681 -0.043445576 0.020915303 -0.0025353916
0.04967043 -0.0464216 -0.036185253 -0.035348944 -0.03447082 0.0121440515 0.013458978 0.015718173
-0.00898844 0.017682735 0.029782515 0.0022095442 0.008235723 0.030546915 -0.014679454 0.0032592118
0.046309005 -0.0430439 -0.0072671995 -0.036762964 0.04202773 -0.04601109 0.002323281 -0.014098711
0.040592644 0.026157442 -0.029495556 -0.032787252 0.0030951425 0.033079322 -0.018540122 -0.038489006
-0.047483463 -0.016391508 -0.04959033 -0.001436878 0.029213067 0.003040444 0.030687157 0.038890135
-0.041061826 0.026837576 -0.011364542 0.019398045 -0.038546205 -0.03781572 0.044374857 -0.030292844
0.048616182 0.01620591 0.046532612 0.04231968 0.041933972 -0.003880132 0.021278534 0.042754147
-0.0344207 0.026158672 0.013299797 0.042696062 -0.015303016 0.036000136 0.044636097 0.03653342
0.0351114 0.0010543242 -0.0005712807 0.0014369898 -0.011442672 -0.045832038 0.044105623 0.00040347502
-0.0004467182 0.029582899 -0.0033595972 -0.03492663 -0.03741207 0.019368757 0.022042353 -0.014242094
0.018732365 0.040829916 -0.011661895 0.014316719 -0.0019161105 -0.038029134 0.03734209 0.0125420205
-0.04472378 -0.017589994 -0.0331972 0.009043761 0.04415867 0.037933197 -0.013619401 0.0055003986
-0.044872172 -0.04520911 0.045731332 -0.04026701 0.048765432 0.029169332 0.020345818 0.014783446
0.028059658 0.03238586 0.027674887 0.045193035 0.019595329 0.007685352 0.021176297 0.0325171
-0.0067078173 -0.0031137168 -0.036811274 -0.030329227 0.0018458664 -0.020229256 -0.01888575 -0.045221955
-0.020679587 -0.042724606 -0.013759159 -0.01309647 -0.029109592 -0.040150803 0.015522037 -0.017879277
-0.027743328 -0.019741362 -0.007749766 -0.023282362 0.03002951 0.025376085 0.02523857 -0.032815866
0.01257259 0.00891719 -0.01016169 -0.009217709 0.0028851107 -0.046072185 -0.042610925 0.043579463

bias f4 [200]
00000000: d052 94bc db0f 473d 5872 abbc 4b78 c9bc
00000010: 45af 263d 95b6 0a3d c6d6 2d3d bdab afbc
00000020: 4dad 46bd f492 3fbd a004 3c3d 4e3a 203d
00000030: aa9e d73c 50da cfbc 30a3 123d c94e 2abd
00000040: 75ea 00bd 5d61 c7bb da2b 463d b074 01bd
00000050: 17b2 3b3b d83e 9a3c 6f69 00bc 37ba 643c
00000060: 5726 8abc da67 0ebc 09fa 593b 9e38 f8bb
00000070: d93c 793c 759d 493c c24f 27bd 554c d1bb
00000080: 954d 103d 64a3 c93c 22d3 603c 8688 16bc
00000090: 0d12 803d 09fc 5c3a fe96 5f3d 47f7 ea3c
000000a0: 0164 67bb 4477 453d adb0 363c 800b 623d
000000b0: 2ade b9bc 6b50 a13c 1e60 733d f952 bebc
000000c0: a6f6 f2bc 8168 0e3c 5169 293c 0eb6 2abd
000000d0: 124c 5ebb 858d 1bbd a111 86bc 3ed8 f3bc
000000e0: 379a 24bd 68f5 353d 5630 0e3d a86f 423b
000000f0: 1db3 cc3c 9a5f fe3c 5a80 c63c 7d27 e7bc
00000100: 4913 8abc 1c68 593d 8d66 08bd d275 0b3d
00000110: a620 6fbc 12ae 463c 988f 873c e1ca c4bc
00000120: d6ef 263c 1578 1fbd 74ff 48bd 277b 96bc
00000130: 9953 223d 4bc6 58bc f35a 383d bc04 8abb
00000140: e890 253d 0bcd 6fbc a082 cebc 8cd0 c5bb
00000150: 41a9 073d 69c1 aabb a0f2 2abc 26c5 a8b9
00000160: 2c2a c73c 21d3 7b3c 4d3a 383d 1d88 163d
00000170: f449 e43c 4ffe 233d 78a8 943c ebd1 00bd
00000180: fbc8 c03c f708 e43c 7547 893b 81df 0fbd
00000190: d117 ccbc ce90 1fbd b559 ca3c 15d4 903c
000001a0: b428 f03c 77b0 42bd c2f2 bfbc c68a 573d
000001b0: c6b5 27bd 299f 103d f0a9 d8bc f4e8 d83c
000001c0: 82c7 a7bc 308d 31bc 7e6d f43c cb94 d7bb
000001d0: 9f51 e2bc a274 32bc 96f1 1dbd 06ee 52bc
000001e0: 6668 7f3c f9dd 2c3c d21f 17bd 80ec f43c
000001f0: c45d 7a3d 916a 05bd ee1c debc 2c86 3f3d
00000200: 79ce 863c 49b0 43bc 4187 6ebc f2c6 903c
00000210: 8c11 04bd ab08 06bd 61b5 643d a22c d4bc
00000220: c5bf d9bc 0d89 363d 3509 a7bc b5a8 e1bc
00000230: a0db 39bd 4910 033d a6a8 a23c 9bea 52bd
00000240: d42e e9bb d130 efbb b51f ea3b 5833 553d
00000250: 0a2d b1bc 26c3 febc 7fb1 e43b 0cea 6bbb
00000260: 4b51 473d 7d28 5cbc 84c9 ffbc 6762 f8bc
00000270: aa23 963c c918 853d 001a 363d e8ad 26bc
00000280: 806b 84bc 0257 f93c dc4e 90bc 49d3 95ba
00000290: 9db3 5d3c ccfe 523d a1e5 463d 6506 153a
000002a0: 8bfa 783c 13a2 d33c 255f d8bc 5506 12bd
000002b0: cb66 673c a05e 173d 949a 93bc c637 983b
000002c0: 48f6 5fbc 5846 263c 44de 8d3c 53af 90bc
000002d0: 583b 5abd dd4c 70ba 0b90 233d 13eb 4ebb
000002e0: c5e9 633d a8f0 c13c f3e3 96bb ed59 61bd
000002f0: 3bef 053d 98bf d6bc 2506 16bd 85f4 ce3c
00000300: 4ec3 89bc 91ce aebb c2bd 2b3d 2b0d 6e3d
00000310: 9394 87bc 5a81 cc3c 3d34 b03c a2b8 b6bc
-0.018105894 0.048599105 -0.020928547 -0.024593493 0.040694494 0.03386553 0.042441152 -0.021444196
-0.048505116 -0.046771005 0.04590285 0.039118104 0.026320774 -0.025372654 0.03580016 -0.04157904
-0.031473596 -0.0060846047 0.048381664 -0.031605422 0.0028640085 0.018828794 -0.007837637 0.013960413
-0.016863985 -0.008691752 0.0033260605 -0.0075751087 0.015212261 0.012305607 -0.040847547 -0.0063872733
0.035230238 0.024614044 0.013722213 -0.009187823 0.06253443 0.000842989 0.054587357 0.028682364
-0.003530741 0.048209444 0.011150521 0.05518675 -0.022688944 0.019691667 0.059417836 -0.023232924
-0.029658627 0.008691908 0.010340051 -0.041677527 -0.0033919853 -0.03797676 -0.016365828 -0.029766198
-0.040186133 0.04442349 0.034714065 0.0029668603 0.024987752 0.031051446 0.024231125 -0.028217072
-0.016854899 0.053077802 -0.033300925 0.03404791 -0.014595186 0.0121264625 0.016547963 -0.024022521
0.010189017 -0.03893288 -0.049071744 -0.01836927 0.039630506 -0.0132308705 0.04500861 -0.00421199
0.040421396 -0.014636288 -0.025208771 -0.0060368236 0.033120397 -0.0052110446 -0.010433823 -0.00032190344
0.024312101 0.015370161 0.044977475 0.0367509 0.027867295 0.04003745 0.018146738 -0.031450193
0.023533335 0.027836306 0.0041894265 -0.03512526 -0.0249137 -0.038956456 0.024700979 0.017679254
0.029316284 -0.04753157 -0.023431186 0.05262258 -0.040944837 0.035308037 -0.02644822 0.026478268
-0.020480875 -0.010836884 0.029837366 -0.006579017 -0.02762681 -0.010892065 -0.038560472 -0.012874132
0.015588855 0.010550969 -0.03689558 0.029897928 0.061124578 -0.032572333 -0.027113404 0.046758816
0.016455876 -0.011943885 -0.014558614 0.01767299 -0.032243297 -0.03272311 0.05583704 -0.025900189
-0.0265807 0.044564296 -0.020390132 -0.027546266 -0.045375466 0.031997953 0.019855808 -0.05149327
-0.007116178 -0.0072995205 0.007144893 0.05205092 -0.021627922 -0.031098913 0.006979167 -0.0035997657
0.04866151 -0.0134373875 -0.03122402 -0.03032036 0.018327553 0.06498868 0.04445839 -0.010173298
-0.016164541 0.030436996 -0.017615728 -0.0011430766 0.013531593 0.051512524 0.048558835 0.0005684852
0.015196453 0.025834119 -0.026412556 -0.03565057 0.014123629 0.036955476 -0.018018045 0.0046453206
-0.013669558 0.010148607 0.017317899 -0.017661726 -0.05327925 -0.0009166727 0.039932292 -0.003157322
0.055642862 0.023674324 -0.0046048104 -0.0550174 0.03269885 -0.026214406 -0.036626954 0.02526308
-0.016816761 -0.005334683 0.041929014 0.058118027 -0.016550338 0.024964023 0.021509284 -0.022304837

weight f4 [2, 200]
00000000: cf5b 81bd 0a37 89bc 7079 e0bc 8331 8c3d
00000010: 231b 8abd 9dda 233d bb91 2f3d 8cdd 183d
00000020: ace4 38bc 0d0e 6c3c c25f a4bc 22e6 373d
00000030: 3fc0 acbd 9a8a 01bc e1cb b1ba be3f 723d
00000040: 6c65 19bd ca9c 3d3d 63a1 87bd 8d6a 773c
00000050: 7630 2f3b 6276 ab3c 6fbc 81bd ca08 75bc
00000060: 6ea0 1fbc d90f c13c 1535 143d b5be 333c
00000070: 335b 83bd fa1b 113d f2a1 933c d9df 233d
00000080: 0cdd d0ba c2ec e43c 38f5 6cbb 1ff1 2bbc
00000090: 332f 99bd e353 683d b24b d0bc 12ed 00bd
000000a0: 930f 26bc 579a a0bc 72da 0d3d b8d2 013c
000000b0: f6b1 27bd fa3a 4c3d 7c9e 8fbd 656c 163c
000000c0: b476 b7bb f9bb 713d 552a 0e3d ef04 52bc
000000d0: 002f a4bd ea67 4a3d 6c28 c63c 1a3d 1ebd
000000e0: 4890 353d bc9f bf3b be51 adbc 476c dd3c
000000f0: 474e 853d 517b cc3c bb57 11bd 4131 a33c
00000100: 2123 4b3d 76d8 323b d1cc 1f3c 5544 423d
00000110: 9f54 0f3d 3ea9 47bd fea8 153c cb96 4b3c
00000120: 7b8d 42bd 3951 aa3c a411 183d 9ce3 d83c
00000130: 4b66 6d3d f701 ecbc 9262 5b3d 7565 8a3d
00000140: 325a c4bc 6eff 973a 5b39 0abd 91ea a1bc
00000150: c0ce 3ebd cc36 5fbd 30b3 7b3c 7f60 87bb
00000160: 624c c23c dd23 4c3c a038 003d dbfe 6abd
00000170: 9749 41bd e509 083d aca6 e0bc 6e13 e93c
00000180: 29c7 233d 2d5d 1bbc d99d 873d f75a c53b
00000190: 4cd4 62bc 5e20 3c3d 5167 2abd 3975 0bbd
000001a0: b9f4 20bd da0c 483d 2eaa 43bd cdba 26bd
000001b0: d6a7 363d 5336 4abd b86a 68bd bb96 86bd
000001c0: 661b 993c 780a e33c 0e2e 383d b3a5 67bd
000001d0: b8b2 7bbd 5150 243b 2244 523d 9f58 a63c
000001e0: bd68 90bd 5887 4ebd 655c 02bd 73d6 abbd
000001f0: fdf7 6cbd c187 173d 6217 dc3b 4308 8dbb
00000200: f29e 803d c59f 5bbb 36b3 163d bcd0 02bd
00000210: 9db9 393d 11ad 5cbd bd0b 85bd 0881 67bd
00000220: 2a4e 91bc 022b 233d 3219 cd3c b61a 7abd
00000230: 8f75 023d 774e 94bd ebc0 173c 95a4 8a3d
00000240: 5a0a 10bd d088 fdbc 35a5 a83c c484 3abd
00000250: fbf7 423d 772f 22bd 7b32 a13b 325d dc3b
00000260: 272f 1fbd 0dc3 4e3d 34bb 7abc c85e 8f3c
00000270: 5758 a0bd 04f5 95bd a1f7 cbba 450c 31bd
00000280: 13a3 193d 6f25 d33b 0f7f 9d3c f819 cc3c
00000290: e06e 5dbc eeb0 93bd 0bb8 263d f0c3 323d
000002a0: 72bb 903c 44fd f43c 58cb 08bd bc26 203d
000002b0: 063f 6c3d be00 a3bc 2187 c73c a155 79bc
000002c0: 4ba8 913c ff5d aebc b7f6 473d 9465 c9bc
000002d0: 11ca 0f3c 21bc 203d 3b2b 82bd f0da 76bc
000002e0: 06f5 adbc a2c4 313b d534 aabd eea8 2b3d
000002f0: d340 cabb 150d 7bbd c2ec 5b3d bbb1 99bd
00000300: 3f33 22bd 0c0b b73c b304 a2bd 6b03 5cbd
00000310: 30a2 95bd c580 3d3d d797 583d 5476 2abd
00000320: 2c47 1a3d e803 2ebd a996 14bc d5fb 193d
00000330: 0960 9bbc b99c 203d 53e4 863d 647a 4ebc
00000340: b685 1d3d cb79 553d 3675 d0bc b92f 523c
00000350: b610 f83c 5d31 a1bd db2a 94bd bb91 943d
00000360: 9f75 a2bd 289e ff3c 6b43 a6bc 0c1e 2fbc
00000370: 1105 33bd ea0d 7abd 3b9b 3d3d e03a 0ebd
00000380: 0717 2dbc 6ca2 c4bc b528 9cbd 7952 20bd
00000390: 50a5 a53c f074 da3c d5d0 b93b fa6e 773d
000003a0: c6a9 853d 456f 803c 6feb 333d c78d 003d
000003b0: 602e 54bd 5524 89bd 82cc 86bc 513c 85bd
000003c0: 3bd2 20bd 16cb a8bc a360 78bd 0035 6cbd
000003d0: b3bf a1bd cd8d 853d a1ce b73c e0d4 84bd
000003e0: 0041 b73b 1e3b 533d ce23 303d 9e1f 143d
000003f0: 2d77 463d 3265 75bb c1d5 6e3b ed32 5cbd
-0.06316339 -0.016749877 -0.027401656 0.06845381 -0.06743457 0.040003408 0.04286359 0.03732066
-0.011284988 0.014407647 -0.020065192 0.044897206 -0.084351055 -0.00790658 -0.0013564789 0.05914282
-0.03745024 0.046292104 -0.06622579 0.015101087 0.0026731766 0.020930473 -0.06334769 -0.014955709
-0.009742839 0.023567127 0.036183435 0.010970761 -0.06413879 0.03542707 0.018021557 0.0400084
-0.0015935018 0.027944926 -0.0036156904 -0.0104944995 -0.07479706 0.056720626 -0.02542672 -0.031476088
-0.010135549 -0.019604845 0.034632154 0.007923774 -0.0409412 0.049860932 -0.0701265 0.009181117
-0.0055988673 0.059017155 0.03470834 -0.012818559 -0.08016777 0.049415506 0.024189197 -0.03863249
0.04432705 0.0058478992 -0.021157142 0.02702917 0.06509071 0.024961146 -0.035484057 0.019920947
0.04959405 0.0027289665 0.009753422 0.047428448 0.03499281 -0.048745386 0.009134529 0.012426089
-0.047498208 0.020790683 0.0371262 0.02647572 0.057958882 -0.02880953 0.0535608 0.06757633
-0.02396879 0.001159651 -0.033746105 -0.01976517 -0.04658389 -0.054495618 0.015362546 -0.0041313763
0.023718063 0.012459722 0.031304 -0.057371955 -0.04718932 0.03321256 -0.027423225 0.028451648
0.039984856 -0.009482664 0.06621904 0.0060228067 -0.013844561 0.045929305 -0.041602436 -0.03404734
-0.039295886 0.04884038 -0.047769718 -0.04070549 0.044593655 -0.049368214 -0.0567424 -0.06571718
0.018689822 0.027714953 0.044965796 -0.056554507 -0.061449736 0.0025072286 0.051334508 0.02030593
-0.07051227 -0.050422043 -0.031826396 -0.08390512 -0.057853688 0.0369947 0.0067166546 -0.0043039634
0.062803164 -0.0033511978 0.036792003 -0.031937346 0.04534303 -0.053875986 -0.064963795 -0.05651954
-0.017737467 0.039835937 0.025036428 -0.06106063 0.031850394 -0.072415285 0.009262304 0.06769673
-0.035166122 -0.030949026 0.02058659 -0.04553677 0.047599774 -0.039596047 0.004919348 0.006724977
-0.038863327 0.050478984 -0.015303422 0.01750125 -0.078293495 -0.07322124 -0.001556147 -0.04322459
0.037509035 0.0064436714 0.019225625 0.024914727 -0.013515204 -0.07211481 0.04070286 0.04364389
0.017667506 0.029905923 -0.03339705 0.03909944 0.05767729 -0.019897815 0.024356427 -0.015218169
0.017780444 -0.021285055 0.04881927 -0.024584569 0.008776204 0.039241914 -0.06355902 -0.015066847
-0.021235 0.002712526 -0.08310858 0.04190915 -0.0061722784 -0.061291773 0.053692587 -0.075046025
-0.039599653 0.022344135 -0.079110526 -0.053714197 -0.073063254 0.046265382 0.05287918 -0.041616753
0.03766553 -0.042484194 -0.009069123 0.03759368 -0.018966692 0.039211962 0.06586518 -0.012602422
0.038457595 0.052118104 -0.025446516 0.012828761 0.030281406 -0.078707434 -0.072347365 0.072543584
-0.07932591 0.031203344 -0.02029582 -0.010688316 -0.043706004 -0.061048426 0.046290617 -0.034724116
-0.010564572 -0.02400323 -0.07624952 -0.039141152 0.020220429 0.026667088 0.0056706467 0.06040857
0.06526522 0.015678057 0.0439257 0.03138521 -0.05180204 -0.06696383 -0.016454939 -0.06505645
-0.03926299 -0.020604651 -0.060639035 -0.057667732 -0.07897892 0.06521187 0.022437396 -0.06485915
0.0055924654 0.05157005 0.043002896 0.036162965 0.0484535 -0.003744435 0.0036443325 -0.053759504

bias f4 [2]
00000000: c7ab 4f3d 9716 6abd
0.05070093 -0.05715045
