lab2/problem1/good_network.pth (torch, 3615 bytes, 6 tensors)

weight f4 [8, 8]
000000 33 f0 4e 3d e1 eb 35 bd 37 19 9c bf d1 ab fb 3f
       0.05052204 -0.044414405 -1.2195195 1.9661809
000010 6c 59 b3 3f 23 0f 65 be 7e ba 0e 3c 2c d9 59 be
       1.4011664 -0.22369055 0.008711455 -0.21274251
000020 70 c6 e6 bd 0b 8a d1 bf 82 98 64 bd bd 44 5d 40
       -0.11268318 -1.6370252 -0.055809505 3.4573205
000030 b0 0f a9 be 66 9e 69 3f 92 73 0b 3f cf f2 6b 3f
       -0.3301978 0.9125732 0.5447322 0.9216737
000040 f6 d9 a9 3d ad 15 b9 3d d0 ff c5 bd 82 36 83 3e
       0.08293526 0.090373375 -0.09667933 0.25627524
000050 ce 32 16 40 13 97 79 3f 56 65 dd 3e aa 24 f3 3e
       2.3468509 0.97496146 0.43241376 0.4748891
000060 c8 87 79 3b 21 d3 01 3d 0d 65 a4 bc 40 2b b5 bd
       0.0038075317 0.03169549 -0.020067716 -0.0884614
000070 bd e3 56 40 21 0f 4e 3f 93 b0 d4 be 09 74 5e bf
       3.35765 0.80491835 -0.41540965 -0.86895806
000080 98 e3 7e 3d be 94 80 3d a4 c4 af 3d fb 3e 5b be
       0.06222877 0.0627837 0.08582428 -0.21410744
000090 6a 5f 6c 40 14 39 a3 be ba f0 92 bf b8 b6 2f bf
       3.6933236 -0.31879485 -1.1479714 -0.6863818
0000a0 80 c2 ae 3c 85 65 19 3d 2a 89 e8 3f f6 41 84 3f
       0.02133298 0.037450332 1.8166859 1.033263
0000b0 7d d0 e9 bf 12 ef 37 3d be 8e 01 3f 58 58 c9 3e
       -1.826675 0.04490573 0.5060843 0.39325213
0000c0 b8 54 c4 bd ec bc 08 be e1 31 12 3f 72 ec e7 be
       -0.09586471 -0.13353318 0.5710736 -0.4529758
0000d0 75 98 c3 bf 30 4e 9b 3f 4a 73 ad 3f 06 31 68 3f
       -1.5280901 1.2133236 1.3550808 0.90699804
0000e0 ab 0c 91 3d 74 fc 3c 3e bf 31 90 3e d8 03 90 be
       0.07082494 0.18455678 0.28162953 -0.28127933
0000f0 f7 3e dd bf 09 5d b2 bf 79 cd 15 3f 5f c0 67 be
       -1.728484 -1.3934642 0.5851665 -0.22631977

bias f4 [8]
000000 5b 3c fd 3e b3 eb 91 be a3 a6 53 3d 4d 0b bf bc
       0.4946011 -0.28500137 0.05167259 -0.023320818
000010 6f b0 07 be d5 29 51 3e 3f 76 60 3f 5d d8 07 bd
       -0.13250898 0.20426114 0.8768043 -0.033165324

weight f4 [8, 8]
000000 da 84 df 3f 49 3f 85 bf d4 85 89 3e 4f 3b 5e 3f
       1.7462418 -1.0409938 0.26859915 0.8680925
000010 bd 75 1f c0 67 21 20 40 e3 4e 0b 3e d6 58 3c bf
       -2.4915612 2.5020387 0.13604312 -0.7357305
000020 31 dc b2 be fa 1c e1 bf f7 b2 e8 3c 77 39 1b c0
       -0.34933618 -1.7586968 0.02840565 -2.4253824
000030 f7 a1 44 40 ed 93 c5 be 58 7a 1b 40 1c 15 7d 3e
       3.0723855 -0.3858942 2.4293423 0.24715084
000040 4c 2b f5 3f 3c d7 83 3e f2 8a a4 bd ff 34 1e 3f
       1.9153838 0.25750148 -0.08034314 0.61799616
000050 68 3a bb 3f 58 af 83 3f 54 5e 93 3e cb e3 30 bf
       1.4627199 1.0287886 0.28782904 -0.69097584
000060 fd 1b d6 be 39 90 7e 3f 97 b3 44 3f 23 0d e5 3f
       -0.41818228 0.99438816 0.7683653 1.7894634
000070 02 dd 1a c0 6c fd 83 3e 5c 37 bb be f1 87 df 3f
       -2.4197392 0.25779283 -0.36565673 1.7463361
000080 74 da a1 be 39 e4 a2 3f 4f 09 3f 3f ed bf c9 3f
       -0.3161198 1.2725898 0.7462358 1.5761696
000090 76 07 af bf aa bc f5 3f 79 b6 3a bf 6c d6 ca 3e
       -1.3674152 1.9198201 -0.7293468 0.39616716
0000a0 ed 62 1c bf 30 51 6f 3f bd aa 81 3f 51 66 cd 3f
       -0.6108845 0.9348326 1.013023 1.604685
0000b0 4f 51 e0 bf 9e fe cb 3f db a1 36 bf e7 72 b4 3f
       -1.7524813 1.5937078 -0.7134072 1.4097565
0000c0 62 e1 96 be c1 b4 85 c0 49 e7 a1 3f 4c 98 97 3f
       -0.29468828 -4.1783147 1.2648708 1.1843352
0000d0 54 af 10 bf c1 93 bd 3e 5c 8e d0 bd cb 3c d6 bf
       -0.5651753 0.3702679 -0.10183403 -1.6737303
0000e0 5e 1b 6d 3f 29 61 ff 3f ca d1 93 3f 17 12 0d 40
       0.92619884 1.9951526 1.1548398 2.204229
0000f0 ee 81 ba bf ba 1e 0e 3f 60 27 6e be f9 b0 59 3f
       -1.4570901 0.55515635 -0.23257208 0.85035664

bias f4 [8]
000000 9b 54 2a 3f f0 58 b3 3f eb 40 66 bf 37 e8 4e 3f
       0.6653535 1.4011517 -0.89942807 0.8082308
000010 f3 8e 72 3f 1a 20 85 3f 8a 15 fd 3e 25 9c a5 3e
       0.94749373 1.0400422 0.49430496 0.3234569

weight f4 [4, 8]
000000 29 cf 2f 3e 7e 25 fe 3f 69 bb 90 3f 21 f6 b9 bf
       0.17168869 1.9855192 1.1307193 -1.4528238
000010 7b 5a bf bf ba 42 9f bf b5 70 b5 bf f2 a6 74 bf
       -1.4949487 -1.2442238 -1.417502 -0.9556724
000020 de 3f 66 3f 84 67 bc 3f 4f 8c cd 3f a2 49 ff bf
       0.89941204 1.471909 1.6058444 -1.9944346
000030 bd 4d 8e be 16 32 5c bf db 31 e0 bf d5 51 e9 bf
       -0.27793685 -0.86013925 -1.7515215 -1.8228098
000040 cc b5 1d c0 62 af 45 40 ff 62 be be fd 02 87 bf
       -2.464221 3.0888295 -0.37184903 -1.0547787
000050 80 79 92 bf dd 5e 5d bf 26 bc 27 3f fc 5a ee bf
       -1.1443329 -0.86472875 0.65521467 -1.8621516
000060 92 c2 c0 3e d1 2b cc 3f 00 f8 c1 3f 15 7f 46 bf
       0.37648445 1.5950872 1.5153809 -0.7753766
000070 a6 40 c3 bf a1 a0 03 c0 dc 3c f4 bf 41 6f 1f bf
       -1.5254104 -2.056679 -1.9081073 -0.62279135

bias f4 [4]
000000 c8 30 8f bc a5 2f e5 bd 33 3e 8a 3f 85 bc 24 3f
       -0.017479315 -0.11190728 1.0800232 0.6435016
