lab2/problem1/neural-network-1.pth (torch, 10143 bytes, 5 tensors)

weight f4 [128, 8]
0	0x3eb654a6	0.35611457
1	0xbf280893	-0.65638083
2	0x3e117799	0.14205779
3	0x404d44fe	3.207336
4	0xbef0f135	-0.47059026
5	0xbfd514a2	-1.6646922
6	0x3f466f10	0.7751322
7	0x3f41d0f8	0.75709486
8	0x3cbd0946	0.023075711
9	0x3f8cf7f1	1.1013166
10	0xbf5f6323	-0.87260646
11	0xbf2abae9	-0.6669145
12	0xbec0eaef	-0.3767924
13	0xc01783fe	-2.3674312
14	0xbf8b8f2e	-1.090307
15	0x3e086f5a	0.13323727
16	0xbf36130b	-0.7112281
17	0xbf6a4610	-0.91513157
18	0x3f99e832	1.2023985
19	0xbe9431aa	-0.2894414
20	0x3fc30e7b	1.5238794
21	0x3fa23d83	1.2675022
22	0xbda19ed4	-0.07891622
23	0x3faf0bea	1.3675511
24	0xc004b41b	-2.0734928
25	0xbf1b74de	-0.607252
26	0xbe896f34	-0.26842654
27	0xbffb51ad	-1.96343
28	0x3fd6d4fe	1.678375
29	0x3fb4ddd2	1.4130194
30	0x3d8b8531	0.068125136
31	0xbfd3b671	-1.6540052
32	0xbe9db866	-0.30804747
33	0x3e9fe00a	0.31225616
34	0x3f359266	0.7092651
35	0xbffc78ae	-1.9724329
36	0xbe9eb7cd	-0.30999604
37	0xbf5032d7	-0.81327575
38	0xbfa48303	-1.2852482
39	0xbe81e9f4	-0.25373805
40	0x3ff07efe	1.8788755
41	0xbf6ffd21	-0.9374562
42	0x3f3f8e6c	0.74826694
43	0xbf853eea	-1.0409825
44	0xbec89fe0	-0.39184475
45	0xbf2d58cc	-0.6771362
46	0x3e770721	0.24123813
47	0x3e6c4ff4	0.23077375
48	0xc0377c16	-2.8669486
49	0xbf643495	-0.89142734
50	0xbfdca6b9	-1.723838
51	0xbf69a136	-0.91261613
52	0x400fd0df	2.2471235
53	0x3ea37e4a	0.31932288
54	0xbe0c5116	-0.13702807
55	0xbd960d1f	-0.073267214
56	0xc08d376d	-4.413016
57	0xbdd7c829	-0.105362244
58	0xc00fe704	-2.248475
59	0x3ecca2b9	0.39967898
60	0x3f4cfd4f	0.8007402
61	0xbf5215bb	-0.8206441
62	0x3e7a4f97	0.24444424
63	0xbdf69c68	-0.12041551
64	0x3f507642	0.8143045
65	0xc1347d25	-11.280553
66	0xbff61c0d	-1.922731
67	0xc0062f9a	-2.0966554
68	0xbf514a40	-0.8175392
69	0x3e7bc775	0.24587806
70	0x3eef9d37	0.46799633
71	0x3ec2ae05	0.3802339
72	0xbe9002f0	-0.2812724
73	0xbf4df288	-0.804482
74	0x3ecf0dda	0.40440255
75	0xbff265a0	-1.8937263
76	0xbe06450b	-0.13112275
77	0xbf3a84b0	-0.72858715
78	0xbfed327e	-1.8531034
79	0xbde1da12	-0.11027922
80	0xbdb1544d	-0.08658657
81	0x3eaa178d	0.33221093
82	0xbec79d24	-0.38987076
83	0xbf81bab1	-1.0135099
84	0xbedc9f15	-0.4309012
85	0xbfc90099	-1.5703307
86	0xbf996ba7	-1.1985978
87	0x3eb03635	0.34416357
88	0xbe381aca	-0.17978969
89	0x406db565	3.7141964
90	0x3f56311a	0.83668673
91	0xbe4a08ef	-0.1972997
92	0x3fc3f0ea	1.5307896
93	0xbf14bb63	-0.5809843
94	0xbfb99071	-1.4497205
95	0xbf9a220a	-1.2041638
96	0xbf95f2bd	-1.1714703
97	0xbedb7033	-0.4285904
98	0x3e060253	0.13086824
99	0xbf55d9c2	-0.835354
100	0x3feda65b	1.8566393
101	0x40089dbe	2.1346278
102	0xbf974c0e	-1.1820085
103	0xbfd27471	-1.6441785
104	0xbe115431	-0.14192273
105	0x3ef0f39b	0.47060856
106	0xbe541583	-0.20711331
107	0xbf6992cf	-0.9123964
108	0x3f1aa0b2	0.6040145
109	0xbf3bfcae	-0.73432434
110	0xc0347075	-2.8193638
111	0x3f150db1	0.58224016
112	0x40351f0d	2.8300202
113	0x3eef1b05	0.46700302
114	0x3fa6cf63	1.3032039
115	0xbeffd200	-0.49964905
116	0xbf7781d0	-0.96682453
117	0x3e9e0241	0.30861095
118	0x3ee15f2a	0.44017917
119	0x3eb13352	0.34609467
120	0x3fe5fdf6	1.7968128
121	0xbf3ed94d	-0.74550325
122	0x3f651d1a	0.8949753
123	0xc0299d0b	-2.6502101
124	0xbf0dffcc	-0.5546844
125	0xbdcd26b3	-0.10017147
126	0xbe020f6b	-0.12701194
127	0x3b2a060c	0.0025943546
128	0xc062fed8	-3.5468044
129	0x3e5ff370	0.21870208
130	0xbfbbf00b	-1.468263
131	0xbf44760f	-0.76742643
132	0x405ace37	3.4188364
133	0x3c58dea1	0.013236673
134	0x3d264d3b	0.040600996
135	0xbeab059b	-0.33402714
136	0xc00f5e1e	-2.2401195
137	0xbfa4a8e9	-1.2864047
138	0x3f9dc3e7	1.232541
139	0xbfe3008f	-1.7734545
140	0x40058d2f	2.0867422
141	0x3f860072	1.0468886
142	0xbdd3cc14	-0.10341659
143	0x3f12510e	0.5715493
144	0xbfdb1bb4	-1.7117829
145	0xbf09d6a0	-0.53843117
146	0x3d4a70ca	0.04942397
147	0xbf911fd3	-1.1337837
148	0x40155b93	2.3337142
149	0x3fc98dcd	1.5746399
150	0xbe96bb03	-0.29439554
151	0xbff614a3	-1.9225048
152	0xbcf05d58	-0.029341385
153	0x3fa083d4	1.2540231
154	0x3ee467a5	0.44610325
155	0xbf185dc7	-0.5951809
156	0x3d94185d	0.072312094
157	0x3f457d7d	0.77144605
158	0xbe1ca139	-0.15295877
159	0x3edc9095	0.43079057
160	0x3eaae7be	0.3337993
161	0x3f102d36	0.56318986
162	0x3f936461	1.1515008
163	0xbf1776cd	-0.5916565
164	0xbf521c3e	-0.82074344
165	0xbe061865	-0.13095243
166	0x3e77d8e9	0.24203838
167	0x3ec74bdf	0.38925073
168	0x3e8a3953	0.2699686
169	0x3f4a32bf	0.7898368
170	0x3dd86c5d	0.10567544
171	0x3f513b2a	0.817309
172	0xbbf9278d	-0.007603592
173	0xbfbaf76e	-1.460676
174	0x3dfdacda	0.123864844
175	0x3f5d4d59	0.8644615
176	0x3faeb731	1.3649656
177	0xbf23baf0	-0.6395712
178	0x3f5ebbeb	0.8700549
179	0xbf922617	-1.1417874
180	0xbf9ea775	-1.2394854
181	0xbedffe2c	-0.43748605
182	0x3f872023	1.0556682
183	0x3dcb2fb8	0.09921211
184	0x3ee45a6a	0.4460023
185	0x3f8b5051	1.0883886
186	0x3d55397e	0.052056782
187	0x3e8edd7b	0.2790335
188	0xbea3a8b9	-0.31964663
189	0xbf6e5285	-0.93094665
190	0x3f2a1ec7	0.6645321
191	0x3f04e4bc	0.5191152
192	0x3f387593	0.72054404
193	0x3ea33dd9	0.31883124
194	0x3f906fb5	1.128409
195	0xbf05e062	-0.52295506
196	0x3f485ad4	0.7826359
197	0x3e964cf5	0.2935559
198	0x3f45f63b	0.7732884
199	0x3e2767f7	0.16348253
200	0x3d6ca20d	0.05777173
201	0xbedfede7	-0.43736193
202	0x3f322a22	0.6959554
203	0xc012ed1f	-2.2957227
204	0xbfeaaadc	-1.8333392
205	0xbfc83329	-1.5640613
206	0xbfe249ed	-1.767881
207	0xbf811126	-1.0083358
208	0xbe5aa572	-0.21352175
209	0x3f46b17b	0.77614564
210	0x3f32d521	0.6985646
211	0x3ee01c29	0.43771484
212	0x3e0c5d38	0.13707435
213	0xbfa720e0	-1.3056908
214	0x3ed9c9a1	0.42536643
215	0x3f5ece3b	0.8703343
216	0x3fc44f7a	1.5336754
217	0x3dffb140	0.1248498
218	0x3fd858a2	1.6902049
219	0xbecfe479	-0.40603998
220	0x3f3e08e4	0.74232316
221	0x3f199523	0.5999319
222	0x3f64d902	0.8939363
223	0x3db3a5f6	0.08771889
224	0x3e297a74	0.16550618
225	0x3dc0ae71	0.09408272
226	0x4008c5d3	2.1370742
227	0x3e398c8d	0.18120022
228	0x3f508b1b	0.8146226
229	0xbfc06d8b	-1.503343
230	0xbfb59310	-1.4185505
231	0x3f53690f	0.8258218
232	0xbdce4103	-0.10070994
233	0xbf01be30	-0.5068083
234	0x3f9a5773	1.2057937
235	0xbff2af29	-1.8959705
236	0xc0461ced	-3.0955155
237	0xbf3ea911	-0.74476725
238	0xbe8d3891	-0.2758222
239	0xbdb7e845	-0.08979849
240	0x3d8a200a	0.06744392
241	0xbd729b96	-0.05923041
242	0x3cd61eb9	0.026137697
243	0xbf9002a8	-1.1250811
244	0xbf9ec38a	-1.2403424
245	0xbf90a2d7	-1.1299695
246	0x3edf88a1	0.43658927
247	0x3e9c67de	0.30547994
248	0x3f22f3ff	0.6365356
249	0x3f4ac24a	0.7920271
250	0x3e9edc9c	0.31027687
251	0xbf1569fd	-0.5836485
252	0x3e4f7452	0.20259216
253	0xbf89d47f	-1.0767974
254	0xc03df362	-2.96798
255	0x3ead5c68	0.33859563

bias f4 [128]
0	0xbf1339e5	-0.57510215
1	0x3f8108d3	1.0080818
2	0xbe9d116a	-0.30677348
3	0xbf918064	-1.1367307
4	0x3e389e0a	0.18029037
5	0xbea19210	-0.3155675
6	0x3d9fb94d	0.07799015
7	0x3d081587	0.033223655
8	0x3f79b67a	0.9754406
9	0xbfc420fe	-1.5322568
10	0x3e3504d0	0.17677617
11	0xbf3bdf5a	-0.7338768
12	0xbf3c03a1	-0.7344304
13	0x3dbb5df8	0.091487825
14	0xbf235b14	-0.6381085
15	0xbead22ee	-0.33815712
16	0x3d5c3a62	0.053766616
17	0xbe87662d	-0.2644514
18	0xbf412a23	-0.7545492
19	0x3efa739d	0.4891633
20	0x3ff435af	1.9078883
21	0x3edea716	0.4348685
22	0xbe8318ef	-0.2560496
23	0x3e36be3f	0.1784601
24	0xbec2f373	-0.38076362
25	0xbf992cd5	-1.1966807
26	0x3ec2662f	0.37968585
27	0xbdc57179	-0.09640784
28	0xbf80bb04	-1.0057073
29	0xbfa5a169	-1.2939883
30	0x3fb1f653	1.3903297
31	0xbf7f25ec	-0.9966724
32	0xbe2f5b3a	-0.17124644
33	0xbf235171	-0.63796145
34	0xbf8ea52f	-1.114416
35	0x3f807019	1.003421
36	0xbf9520a3	-1.1650585
37	0xbf1312a4	-0.5745032
38	0xbf2c6a1f	-0.6734943
39	0x3e741e8d	0.23839779
40	0x3e831646	0.2560293
41	0xbe3de254	-0.18543369
42	0x3eaa910b	0.33313784
43	0xbc738481	-0.014863134
44	0x3fb9bfa5	1.451161
45	0xbf2131c0	-0.6296654
46	0x3ee0467d	0.43803778
47	0xbf4e2999	-0.80532223
48	0x3f8b3a78	1.0877218
49	0xbe4747ff	-0.19461058
50	0xbf953ab3	-1.1658539
51	0xbf8aee3c	-1.0853953
52	0xbf02c830	-0.5108671
53	0xbd63934e	-0.055560403
54	0xbe514193	-0.20435171
55	0xc00f6ba7	-2.2409456
56	0x3f2cd913	0.6751873
57	0xbf851871	-1.0398084
58	0x3e6d4566	0.23171005
59	0x3a8472e9	0.0010105047
60	0xbf59a57a	-0.8501812
61	0x3f98d57a	1.1940148
62	0xbeeb735b	-0.45986447
63	0xbf8b78c6	-1.0896232
64	0x3e6bc96f	0.2302606
65	0x3fdd2742	1.7277606
66	0xbf10558a	-0.5638052
67	0xbe0fba1b	-0.14035837
68	0xbdbf1178	-0.09329504
69	0x3e3ac19e	0.18237922
70	0x3feef03f	1.8667067
71	0xbf8f9447	-1.1217126
72	0x3d2caa2e	0.042154483
73	0x3e3efea9	0.18651833
74	0x3da5990f	0.08085834
75	0x3ec62f86	0.38708133
76	0xbf46eb62	-0.77702916
77	0xbef2c10e	-0.47412914
78	0x3baa316a	0.005193879
79	0xbf048b37	-0.51774925
80	0xbfae6c32	-1.3626769
81	0x3f062ba8	0.52410364
82	0x3f7bdd61	0.9838467
83	0x3ee2a84f	0.44269034
84	0x3f0f9027	0.56079334
85	0x3fc2842d	1.5196587
86	0xbf2fabb1	-0.68621355
87	0x3ef1836e	0.47170585
88	0xbf63caab	-0.8898112
89	0xbf0ead0c	-0.557328
90	0x3eec0c45	0.4610311
91	0x3fedb942	1.8572161
92	0xbea1b5c6	-0.31583995
93	0xbf5d9082	-0.86548626
94	0x3f01fa63	0.50772685
95	0xbf93d284	-1.1548619
96	0xbf1bcc2c	-0.60858417
97	0x3f363382	0.71172345
98	0xbf197562	-0.59944737
99	0x3ec71464	0.38882744
100	0xbd94e290	-0.07269776
101	0xbec1e755	-0.37871805
102	0xbefe7059	-0.4969509
103	0xbed690b5	-0.41907278
104	0x3f06f6f9	0.527206
105	0x3fa2eac6	1.2727897
106	0x3e913804	0.2836305
107	0xbe18bc44	-0.14915568
108	0xbf5454b5	-0.8294175
109	0x3e0ee9fd	0.13956447
110	0xbf501d94	-0.8129513
111	0xbf39da4a	-0.7259871
112	0x3ceae5ec	0.028674088
113	0xbf4e31e7	-0.80544895
114	0x3e9553d5	0.2916552
115	0xbedcbe8c	-0.43114126
116	0xbfaf6d02	-1.3705142
117	0xbe3a6b06	-0.18204889
118	0xbf228a98	-0.6349273
119	0x3f8e5037	1.111823
120	0xbeafd8fa	-0.34345227
121	0xbe05055d	-0.12990327
122	0xbd8d3b83	-0.068961166
123	0x3e6ef84d	0.23336907
124	0xbefd7a05	-0.49507156
125	0xbee9f273	-0.45692787
126	0xbeb2fbc3	-0.34957704
127	0xbd1750fd	-0.03694247

weight f4 [1, 128]
0	0xbfb6d582	-1.4283907
1	0x3ff32540	1.8995743
2	0xc0162d67	-2.3465211
3	0xc0542859	-3.3149626
4	0xbfc85ad7	-1.5652722
5	0xbff4ef5c	-1.9135547
6	0xc0363071	-2.8467066
7	0xc080a52a	-4.0201616
8	0x40a4cff8	5.150387
9	0xc04b4554	-3.1761065
10	0xbf6fc54c	-0.93660426
11	0x40842315	4.1292825
12	0xc0669f19	-3.6034606
13	0xbfb34190	-1.4004383
14	0xc031f6d2	-2.7806897
15	0xc05137e5	-3.2690365
16	0xc080336f	-4.0062785
17	0xc045518a	-3.0831017
18	0xc0866a52	-4.2004786
19	0xbf92865d	-1.1447254
20	0x4006079b	2.0942142
21	0xbfa1f5fb	-1.2653192
22	0xbfd66bd1	-1.6751653
23	0xbf987662	-1.1911128
24	0xbfb76476	-1.4327533
25	0xc08a1637	-4.315212
26	0xbf915054	-1.1352639
27	0xbfc6a575	-1.5519243
28	0xc00d42f2	-2.207211
29	0xc09042b9	-4.508145
30	0x3fb000f6	1.3750293
31	0xbfe12da9	-1.7592059
32	0xc02b970a	-2.6810937
33	0xc091a120	-4.5509186
34	0x40c6e2d9	6.2151914
35	0x3fc3bc04	1.5291753
36	0xc045f4b1	-3.0930598
37	0xbfe2acae	-1.7708948
38	0xbfdbf928	-1.7185411
39	0xc022d087	-2.5439775
40	0xbf6b96f5	-0.9202722
41	0x40e009be	7.001189
42	0xbfd7f96a	-1.687299
43	0xbf80e2be	-1.0069196
44	0x409eeab3	4.96615
45	0xc005429f	-2.0821912
46	0xbf62be28	-0.88571405
47	0xc028e0dd	-2.6387246
48	0x3fc0ecc2	1.5072253
49	0xbfcf73c4	-1.6207204
50	0xc00fbed8	-2.2460232
51	0xc03c75c0	-2.944687
52	0xbeb8673c	-0.36016262
53	0xbffb4165	-1.9629332
54	0xc01bc6ff	-2.4340208
55	0x40c85d3b	6.2613807
56	0xbfcb149f	-1.5865668
57	0xc096d0a9	-4.712971
58	0xc0152728	-2.330515
59	0xbfc8bda4	-1.5682874
60	0xc04882f5	-3.132993
61	0x3f952d68	1.1654482
62	0xc0283d61	-2.6287463
63	0xc0788eab	-3.8837078
64	0xc02a4d9e	-2.6609874
65	0x3fafeed7	1.3744763
66	0xbfad3e45	-1.3534628
67	0xbfb74c6c	-1.4320197
68	0x4054a070	3.3222923
69	0xbfa4779c	-1.2849002
70	0x3fba400e	1.4550798
71	0xc017b2ea	-2.370295
72	0xbf267bab	-0.6503245
73	0xbfa242eb	-1.2676672
74	0xc0708a27	-3.7584321
75	0x40ad869e	5.422683
76	0xc0a97c3b	-5.296415
77	0xc0a7c946	-5.2433195
78	0xbfe2fa53	-1.7732643
79	0xc0a5aa50	-5.17704
80	0xc020b1dc	-2.5108557
81	0x401b1dec	2.4237013
82	0x3fd7f64b	1.6872038
83	0x408d3a3f	4.41336
84	0xc041295e	-3.0181499
85	0x3fdf6cdc	1.7455096
86	0xbff49eb4	-1.9110932
87	0xbf7258a3	-0.946665
88	0xc048de29	-3.1385596
89	0xc08085e8	-4.016346
90	0x403ebe05	2.9803479
91	0x3fdfda54	1.7488503
92	0xbfcc7d3e	-1.5975721
93	0xc0726178	-3.787199
94	0xbf7d7aa8	-0.99015284
95	0xc06acc2d	-3.668712
96	0xc00e5623	-2.2240074
97	0x4043088e	3.0473971
98	0x400ccb7a	2.1999192
99	0x40bd8f2f	5.9237285
100	0xbfbd5260	-1.4790764
101	0xbfc419d4	-1.5320382
102	0xbf6f1a90	-0.93399906
103	0xbec9c1e1	-0.3940573
104	0x401e5403	2.4738777
105	0x3fc70faf	1.5551661
106	0xc00138c1	-2.019089
107	0xc0115917	-2.2710626
108	0xbff65406	-1.9244392
109	0xc0226e95	-2.5379994
110	0xc00b15b3	-2.1731994
111	0xc00d8ddc	-2.2117834
112	0xbf94fb4b	-1.1639189
113	0xc0159c05	-2.3376477
114	0xbf88a329	-1.0674793
115	0xbfb522ae	-1.4151208
116	0xc068cbb4	-3.637433
117	0xc0805d87	-4.011417
118	0xc07f284b	-3.9868343
119	0x403f85d7	2.992544
120	0xbf8c0f0f	-1.0942096
121	0x405da222	3.4630208
122	0xc06eaa15	-3.729131
123	0x409f7816	4.983409
124	0xc008a4a7	-2.1350496
125	0xc029c751	-2.6527903
126	0xc00ee9f2	-2.233029
127	0x40b2c0fb	5.586057

weight f4 [4, 128]
0	0x3e5263a4	0.20545822
1	0xbb8b03e1	-0.0042424058
2	0x3f276a29	0.6539636
3	0x3efcc8de	0.49372
4	0x3e1a61af	0.15076326
5	0xbdb51c9e	-0.08843349
6	0x3e6153d5	0.22004636
7	0x3e36ee68	0.17864382
8	0xbf65736e	-0.89629257
9	0x3f93ea3e	1.155586
10	0xbe909971	-0.28242067
11	0xbe375c1f	-0.17906235
12	0x3fa01239	1.2505561
13	0x3e5e78a5	0.2172571
14	0x3e9d9b81	0.30782703
15	0xbeb74056	-0.35791272
16	0x3e3aa920	0.18228579
17	0x3e086592	0.13319996
18	0x3f47b1a3	0.7800543
19	0x3f0454e5	0.5169204
20	0x3f508610	0.81454563
21	0xbe250433	-0.16114883
22	0x3ea29883	0.31756982
23	0xbe79f3ff	-0.24409483
24	0xbd2f30dc	-0.042771205
25	0x3eecea8b	0.46272692
26	0xbe368f9d	-0.17828222
27	0x3e3a219b	0.18176882
28	0x3f492600	0.7857361
29	0x3f8bc1c2	1.0918505
30	0xbd00134f	-0.031268414
31	0xbe35c3b4	-0.17750436
32	0xbe0118b9	-0.12607087
33	0x3f1ce95c	0.6129358
34	0x3def4d0e	0.11684619
35	0x3bd42c34	0.006474996
36	0xbda4ba4c	-0.08043346
37	0x3e86513d	0.26233855
38	0x3ec547ed	0.38531438
39	0xbef2461f	-0.47319123
40	0xbe83b1fc	-0.2572173
41	0xbf096938	-0.53676176
42	0x3f09dacc	0.5384948
43	0x3c74e2d3	0.014946657
44	0xbe1997e1	-0.14999343
45	0xbe0ef79c	-0.13961643
46	0xbdef563f	-0.11686372
47	0x3f3c3937	0.735248
48	0xbe80adc2	-0.25132567
49	0xbd04dc8c	-0.032436892
50	0xbf182b72	-0.5944129
51	0x3f3d698a	0.73989165
52	0x3c69239f	0.014229684
53	0xbf228ed7	-0.63499206
54	0x3c387b43	0.011259857
55	0x3bc5616e	0.0060235774
56	0x3d86cbf8	0.06581873
57	0x3f7f0ac8	0.99625826
58	0x3d4d8679	0.05017707
59	0x3ed44f70	0.41466856
60	0x3f83b332	1.0289061
61	0xbd228e74	-0.039686635
62	0x3ed4c817	0.41558906
63	0x3d222077	0.039581742
64	0x3c9e14fc	0.019297116
65	0xbd8147fa	-0.063125566
66	0x3e4272f5	0.18989165
67	0x3d2e46c1	0.042547945
68	0x3df258d2	0.118333474
69	0xbd5ea727	-0.054358628
70	0x3db1ff48	0.08691269
71	0x3b89d021	0.004205719
72	0xbcdabafe	-0.026700493
73	0xbe2952ec	-0.16535538
74	0xbb0d89a7	-0.002159694
75	0xbe24cd5f	-0.16093968
76	0x3e98b183	0.2982293
77	0xbe0f9d6a	-0.14024892
78	0x3f2159a7	0.63027424
79	0xbeb4d806	-0.35321063
80	0xbebbba13	-0.366654
81	0x3ef0e512	0.47049767
82	0xbe848943	-0.25885972
83	0x3e5ceea2	0.21575406
84	0xbe7d827d	-0.24756809
85	0xbdc96766	-0.09834175
86	0xbd14e17f	-0.036347862
87	0xbe2c86bd	-0.16848274
88	0x3f21468e	0.6299828
89	0x3f9350bd	1.1509014
90	0xbf2db78d	-0.678582
91	0xbd532dc3	-0.051557314
92	0x3e8f5028	0.27990842
93	0xbe8a1498	-0.26968837
94	0x3e03d7f4	0.12875348
95	0xbf546532	-0.8296691
96	0x3f0d25c9	0.5513578
97	0x3e7ffc8d	0.24998684
98	0xbf892c0c	-1.0716567
99	0xbc97f0c2	-0.01854742
100	0xbe8a0e88	-0.2696421
101	0xbb87c157	-0.004142921
102	0xbe08243a	-0.1329507
103	0x3d03f25c	0.032213554
104	0x3eafce1d	0.3433694
105	0xbe00f3c0	-0.12592983
106	0x3d7e8958	0.0621427
107	0xbe9b0e2e	-0.30284256
108	0x3c8c8b3e	0.01715624
109	0xbf14b4ca	-0.5808836
110	0xbeb2ffa5	-0.34960666
111	0x3f2c9a90	0.67423344
112	0xbcf95a0c	-0.030438446
113	0x3c9267d3	0.017871773
114	0xbd860e97	-0.065457515
115	0x3e7c5ba9	0.2464434
116	0x3f144cdd	0.57929784
117	0x3d7d420e	0.061830573
118	0x3f6e2eb0	0.9303999
119	0xbe1d4f7f	-0.15362357
120	0x3ebad3f1	0.36489823
121	0xbd7bd799	-0.061484907
122	0x3ddff406	0.10935216
123	0xbaf7c0ef	-0.0018902103
124	0xbf36ae29	-0.713595
125	0xbeeac3d1	-0.4585252
126	0x3ef7b4b0	0.4838004
127	0x3f62fde5	0.8866866
128	0xbf02cfd9	-0.510984
129	0xbf23776c	-0.638541
130	0x3e4c5e80	0.19957924
131	0x3ef79ba9	0.48360947
132	0xbec11b11	-0.37715963
133	0x3f587b4a	0.84563124
134	0xbe4f94e2	-0.20271638
135	0xbece1435	-0.40249792
136	0xbf50362b	-0.81332654
137	0xbc0cdf1c	-0.008598115
138	0xbe328c6b	-0.17436378
139	0x3d302302	0.043002136
140	0x3eac9e6e	0.33714622
141	0x3c642d63	0.013926837
142	0x3e9ff0da	0.31238443
143	0xbe8aa88d	-0.2708172
144	0x3f234416	0.63775766
145	0xbeb1e760	-0.34746838
146	0x3fc65b8a	1.5496686
147	0xbcbe8777	-0.023257954
148	0x3f237cd7	0.63862365
149	0x3d01cf25	0.03169169
150	0x3df7c61e	0.12098335
151	0xbdcc942c	-0.09989199
152	0x3e9f9d5d	0.31174746
153	0x3e1f1ba7	0.15537892
154	0x3e8c6ea4	0.27428162
155	0xbf1c2647	-0.60995907
156	0xbf5e8b3d	-0.8693121
157	0x3e8b5862	0.27215868
158	0xbd895da2	-0.06707312
159	0x3deea37a	0.116522744
160	0xbeef980e	-0.46795696
161	0xbe7e23d6	-0.24818358
162	0xbeb9aa50	-0.3626275
163	0xbecd700d	-0.4012455
164	0x3ea664b2	0.324987
165	0x3f179c9d	0.5922335
166	0xbd63d97b	-0.055627327
167	0xbfa31bd8	-1.2742872
168	0x3e21e119	0.15808524
169	0xbe345f89	-0.17614569
170	0x3e699699	0.22811355
171	0xbc960593	-0.018313205
172	0x3e1ff4fe	0.15620801
173	0xbdd83113	-0.10556235
174	0x3e0c4c62	0.13701013
175	0x3f17d322	0.5930654
176	0x3c491773	0.012273657
177	0xbd62c8a7	-0.05536714
178	0x3e025359	0.12727107
179	0x3f735236	0.9504732
180	0xc0410392	-3.015843
181	0xbf8e6707	-1.1125191
182	0x3dfcfb00	0.12352562
183	0x3d8eed6a	0.06978877
184	0x3ed3f0b7	0.41394588
185	0xbdf376c3	-0.118878864
186	0xbf043682	-0.5164567
187	0xbd1c0d38	-0.038098544
188	0x3f108ea7	0.5646767
189	0xbe8f894b	-0.28034434
190	0x3d8e9176	0.06961338
191	0x3e69e806	0.22842416
192	0x3fb351f1	1.4009382
193	0xbe0cee1c	-0.13762707
194	0xbf7d1df3	-0.98873824
195	0xbe5d2ada	-0.21598378
196	0x3edc0238	0.42970443
197	0xbe954dec	-0.29161012
198	0x3d2fc58d	0.04291301
199	0xbfc77193	-1.5581535
200	0xbd5c7248	-0.053819925
201	0x3eeab1b8	0.45838714
202	0x3b02561c	0.001988775
203	0xbe3ce826	-0.18447933
204	0x3fabd357	1.3423871
205	0x3ea78a81	0.32722858
206	0xbe97acdc	-0.2962407
207	0x3e1fd37f	0.15608023
208	0xbf9cb23a	-1.224189
209	0xbe452d41	-0.19255544
210	0xbec21765	-0.37908474
211	0x3ee65800	0.44989014
212	0x3f637c9a	0.88862
213	0x3d42ea90	0.047586977
214	0x3fbb344a	1.4625332
215	0xbd5dc0eb	-0.05413906
216	0x3f1223cc	0.5708587
217	0x3e5c14a4	0.21492249
218	0x3eb9e7c7	0.36309645
219	0x3ea4711b	0.32117543
220	0x3e1c5d78	0.1527003
221	0x3f87140d	1.0552994
222	0xbe71699f	-0.23575447
223	0x3eff3268	0.49843144
224	0xbc901900	-0.017590046
225	0x3f3df387	0.7419972
226	0xbf669ff2	-0.9008781
227	0x3e24b8b4	0.16086084
228	0xbee09921	-0.43866828
229	0xbfa79fc5	-1.3095633
230	0x3f684c92	0.9074184
231	0xbe9181e1	-0.28419402
232	0x3e154e28	0.14580595
233	0x3e3cd661	0.18441154
234	0xbe814604	-0.2524873
235	0xbe4eb97d	-0.20187946
236	0xbeff4dec	-0.49864137
237	0xbda762db	-0.08173152
238	0x3d520866	0.05127754
239	0xbf32418b	-0.6963126
240	0xbf2122a7	-0.629435
241	0x3ec9b30e	0.3939442
242	0xbe8d943a	-0.2765215
243	0x3c53cad8	0.01292678
244	0xbfa0659b	-1.2531008
245	0x3f251ddf	0.64498705
246	0x3f0b6d8a	0.5446402
247	0x3d9d5157	0.0768153
248	0x3f013280	0.5046768
249	0xbe0c1204	-0.13678747
250	0xbc3e1906	-0.011602646
251	0xbd670fa2	-0.056411393
252	0x3e7b135e	0.24519107
253	0x3f48ef8e	0.7849053
254	0x3fb9c3f2	1.4512923
255	0x3f076e50	0.529027

bias f4 [4]
0	0x3d053ce4	0.032528773
1	0xbe81fc7d	-0.25387946
2	0xbd00d1e7	-0.03145018
3	0x3e2d00a2	0.16894773
